Model: "sequential_23"
_________________________________________________________________
Layer (type)                 Output Shape              Param #   
=================================================================
conv2d_1880 (Conv2D)         (None, 224, 224, 24)      240       
_________________________________________________________________
max_pooling2d_1873 (MaxPooli (None, 112, 112, 24)      0         
_________________________________________________________________
flatten_15 (Flatten)         (None, 301056)            0         
_________________________________________________________________
dense_30 (Dense)             (None, 32)                9633824   
_________________________________________________________________
dense_31 (Dense)             (None, 1)                 33        
=================================================================
Total params: 9,634,097
Trainable params: 9,634,097
Non-trainable params: 0
_________________________________________________________________

Fitting with 1 subsampling block.

WARNING:tensorflow:sample_weight modes were coerced from
  ...
    to  
  ['...']
WARNING:tensorflow:sample_weight modes were coerced from
…
259/259 [==============================] - 38s 146ms/step - loss: 0.3961 - tp: 2418.0000 - fp: 156.0000 - tn: 957.0000 - fn: 606.0000 - accuracy: 0.8158 - precision: 0.9394 - recall: 0.7996 - auc: 0.9038 - val_loss: 0.4242 - val_tp: 456.0000 - val_fp: 16.0000 - val_tn: 208.0000 - val_fn: 207.0000 - val_accuracy: 0.7486 - val_precision: 0.9661 - val_recall: 0.6878 - val_auc: 0.8978
Model: "sequential_24"
_________________________________________________________________
Layer (type)                 Output Shape              Param #   
=================================================================
conv2d_1881 (Conv2D)         (None, 224, 224, 24)      240       
_________________________________________________________________
max_pooling2d_1874 (MaxPooli (None, 112, 112, 24)      0         
_________________________________________________________________
conv2d_1882 (Conv2D)         (None, 112, 112, 24)      5208      
_________________________________________________________________
max_pooling2d_1875 (MaxPooli (None, 56, 56, 24)        0         
_________________________________________________________________
flatten_16 (Flatten)         (None, 75264)             0         
_________________________________________________________________
dense_32 (Dense)             (None, 32)                2408480   
_________________________________________________________________
dense_33 (Dense)             (None, 1)                 33        
=================================================================
Total params: 2,413,961
Trainable params: 2,413,961
Non-trainable params: 0
_________________________________________________________________

Fitting with 2 subsampling blocks.

WARNING:tensorflow:sample_weight modes were coerced from
  ...
    to  
  ['...']
WARNING:tensorflow:sample_weight modes were coerced from
…
259/259 [==============================] - 38s 145ms/step - loss: 0.3365 - tp: 2529.0000 - fp: 105.0000 - tn: 1008.0000 - fn: 495.0000 - accuracy: 0.8550 - precision: 0.9601 - recall: 0.8363 - auc: 0.9291 - val_loss: 0.3105 - val_tp: 567.0000 - val_fp: 25.0000 - val_tn: 199.0000 - val_fn: 96.0000 - val_accuracy: 0.8636 - val_precision: 0.9578 - val_recall: 0.8552 - val_auc: 0.9377
Model: "sequential_25"
_________________________________________________________________
Layer (type)                 Output Shape              Param #   
=================================================================
conv2d_1883 (Conv2D)         (None, 224, 224, 24)      240       
_________________________________________________________________
max_pooling2d_1876 (MaxPooli (None, 112, 112, 24)      0         
_________________________________________________________________
conv2d_1884 (Conv2D)         (None, 112, 112, 24)      5208      
_________________________________________________________________
max_pooling2d_1877 (MaxPooli (None, 56, 56, 24)        0         
_________________________________________________________________
conv2d_1885 (Conv2D)         (None, 56, 56, 48)        10416     
_________________________________________________________________
max_pooling2d_1878 (MaxPooli (None, 28, 28, 48)        0         
_________________________________________________________________
flatten_17 (Flatten)         (None, 37632)             0         
_________________________________________________________________
dense_34 (Dense)             (None, 32)                1204256   
_________________________________________________________________
dense_35 (Dense)             (None, 1)                 33        
=================================================================
Total params: 1,220,153
Trainable params: 1,220,153
Non-trainable params: 0
_________________________________________________________________

Fitting with 3 subsampling blocks.

WARNING:tensorflow:sample_weight modes were coerced from
  ...
    to  
  ['...']
WARNING:tensorflow:sample_weight modes were coerced from
…
259/259 [==============================] - 42s 162ms/step - loss: 0.2985 - tp: 2589.0000 - fp: 100.0000 - tn: 1013.0000 - fn: 435.0000 - accuracy: 0.8707 - precision: 0.9628 - recall: 0.8562 - auc: 0.9458 - val_loss: 0.2982 - val_tp: 539.0000 - val_fp: 12.0000 - val_tn: 212.0000 - val_fn: 124.0000 - val_accuracy: 0.8467 - val_precision: 0.9782 - val_recall: 0.8130 - val_auc: 0.9446
Model: "sequential_26"
_________________________________________________________________
Layer (type)                 Output Shape              Param #   
=================================================================
conv2d_1886 (Conv2D)         (None, 224, 224, 24)      240       
_________________________________________________________________
max_pooling2d_1879 (MaxPooli (None, 112, 112, 24)      0         
_________________________________________________________________
conv2d_1887 (Conv2D)         (None, 112, 112, 24)      5208      
_________________________________________________________________
max_pooling2d_1880 (MaxPooli (None, 56, 56, 24)        0         
_________________________________________________________________
conv2d_1888 (Conv2D)         (None, 56, 56, 48)        10416     
_________________________________________________________________
max_pooling2d_1881 (MaxPooli (None, 28, 28, 48)        0         
_________________________________________________________________
conv2d_1889 (Conv2D)         (None, 28, 28, 72)        31176     
_________________________________________________________________
max_pooling2d_1882 (MaxPooli (None, 14, 14, 72)        0         
_________________________________________________________________
flatten_18 (Flatten)         (None, 14112)             0         
_________________________________________________________________
dense_36 (Dense)             (None, 32)                451616    
_________________________________________________________________
dense_37 (Dense)             (None, 1)                 33        
=================================================================
Total params: 498,689
Trainable params: 498,689
Non-trainable params: 0
_________________________________________________________________

Fitting with 4 subsampling blocks.

WARNING:tensorflow:sample_weight modes were coerced from
  ...
    to  
  ['...']
WARNING:tensorflow:sample_weight modes were coerced from
…
259/259 [==============================] - 41s 160ms/step - loss: 0.2830 - tp: 2626.0000 - fp: 93.0000 - tn: 1020.0000 - fn: 398.0000 - accuracy: 0.8813 - precision: 0.9658 - recall: 0.8684 - auc: 0.9498 - val_loss: 0.2907 - val_tp: 563.0000 - val_fp: 19.0000 - val_tn: 205.0000 - val_fn: 100.0000 - val_accuracy: 0.8658 - val_precision: 0.9674 - val_recall: 0.8492 - val_auc: 0.9470
Model: "sequential_27"
_________________________________________________________________
Layer (type)                 Output Shape              Param #   
=================================================================
conv2d_1890 (Conv2D)         (None, 224, 224, 24)      240       
_________________________________________________________________
max_pooling2d_1883 (MaxPooli (None, 112, 112, 24)      0         
_________________________________________________________________
conv2d_1891 (Conv2D)         (None, 112, 112, 24)      5208      
_________________________________________________________________
max_pooling2d_1884 (MaxPooli (None, 56, 56, 24)        0         
_________________________________________________________________
conv2d_1892 (Conv2D)         (None, 56, 56, 48)        10416     
_________________________________________________________________
max_pooling2d_1885 (MaxPooli (None, 28, 28, 48)        0         
_________________________________________________________________
conv2d_1893 (Conv2D)         (None, 28, 28, 72)        31176     
_________________________________________________________________
max_pooling2d_1886 (MaxPooli (None, 14, 14, 72)        0         
_________________________________________________________________
conv2d_1894 (Conv2D)         (None, 14, 14, 96)        62304     
_________________________________________________________________
max_pooling2d_1887 (MaxPooli (None, 7, 7, 96)          0         
_________________________________________________________________
flatten_19 (Flatten)         (None, 4704)              0         
_________________________________________________________________
dense_38 (Dense)             (None, 32)                150560    
_________________________________________________________________
dense_39 (Dense)             (None, 1)                 33        
=================================================================
Total params: 259,937
Trainable params: 259,937
Non-trainable params: 0
_________________________________________________________________

Fitting with 5 subsampling blocks.

WARNING:tensorflow:sample_weight modes were coerced from
  ...
    to  
  ['...']
WARNING:tensorflow:sample_weight modes were coerced from
…
259/259 [==============================] - 38s 146ms/step - loss: 0.2851 - tp: 2659.0000 - fp: 117.0000 - tn: 996.0000 - fn: 365.0000 - accuracy: 0.8835 - precision: 0.9579 - recall: 0.8793 - auc: 0.9496 - val_loss: 0.2532 - val_tp: 579.0000 - val_fp: 15.0000 - val_tn: 209.0000 - val_fn: 84.0000 - val_accuracy: 0.8884 - val_precision: 0.9747 - val_recall: 0.8733 - val_auc: 0.9620
Model: "sequential_28"
_________________________________________________________________
Layer (type)                 Output Shape              Param #   
=================================================================
conv2d_1895 (Conv2D)         (None, 224, 224, 24)      240       
_________________________________________________________________
max_pooling2d_1888 (MaxPooli (None, 112, 112, 24)      0         
_________________________________________________________________
conv2d_1896 (Conv2D)         (None, 112, 112, 24)      5208      
_________________________________________________________________
max_pooling2d_1889 (MaxPooli (None, 56, 56, 24)        0         
_________________________________________________________________
conv2d_1897 (Conv2D)         (None, 56, 56, 48)        10416     
_________________________________________________________________
max_pooling2d_1890 (MaxPooli (None, 28, 28, 48)        0         
_________________________________________________________________
conv2d_1898 (Conv2D)         (None, 28, 28, 72)        31176     
_________________________________________________________________
max_pooling2d_1891 (MaxPooli (None, 14, 14, 72)        0         
_________________________________________________________________
conv2d_1899 (Conv2D)         (None, 14, 14, 96)        62304     
_________________________________________________________________
max_pooling2d_1892 (MaxPooli (None, 7, 7, 96)          0         
_________________________________________________________________
conv2d_1900 (Conv2D)         (None, 7, 7, 120)         103800    
_________________________________________________________________
max_pooling2d_1893 (MaxPooli (None, 4, 4, 120)         0         
_________________________________________________________________
flatten_20 (Flatten)         (None, 1920)              0         
_________________________________________________________________
dense_40 (Dense)             (None, 32)                61472     
_________________________________________________________________
dense_41 (Dense)             (None, 1)                 33        
=================================================================
Total params: 274,649
Trainable params: 274,649
Non-trainable params: 0
_________________________________________________________________


Fitting with 6 subsampling blocks.

WARNING:tensorflow:sample_weight modes were coerced from
  ...
    to  
  ['...']
WARNING:tensorflow:sample_weight modes were coerced from
…
259/259 [==============================] - 38s 146ms/step - loss: 0.2656 - tp: 2687.0000 - fp: 104.0000 - tn: 1009.0000 - fn: 337.0000 - accuracy: 0.8934 - precision: 0.9627 - recall: 0.8886 - auc: 0.9563 - val_loss: 0.2706 - val_tp: 580.0000 - val_fp: 19.0000 - val_tn: 205.0000 - val_fn: 83.0000 - val_accuracy: 0.8850 - val_precision: 0.9683 - val_recall: 0.8748 - val_auc: 0.9508
Model: "sequential_29"
_________________________________________________________________
Layer (type)                 Output Shape              Param #   
=================================================================
conv2d_1901 (Conv2D)         (None, 224, 224, 24)      240       
_________________________________________________________________
max_pooling2d_1894 (MaxPooli (None, 112, 112, 24)      0         
_________________________________________________________________
conv2d_1902 (Conv2D)         (None, 112, 112, 24)      5208      
_________________________________________________________________
max_pooling2d_1895 (MaxPooli (None, 56, 56, 24)        0         
_________________________________________________________________
conv2d_1903 (Conv2D)         (None, 56, 56, 48)        10416     
_________________________________________________________________
max_pooling2d_1896 (MaxPooli (None, 28, 28, 48)        0         
_________________________________________________________________
conv2d_1904 (Conv2D)         (None, 28, 28, 72)        31176     
_________________________________________________________________
max_pooling2d_1897 (MaxPooli (None, 14, 14, 72)        0         
_________________________________________________________________
conv2d_1905 (Conv2D)         (None, 14, 14, 96)        62304     
_________________________________________________________________
max_pooling2d_1898 (MaxPooli (None, 7, 7, 96)          0         
_________________________________________________________________
conv2d_1906 (Conv2D)         (None, 7, 7, 120)         103800    
_________________________________________________________________
max_pooling2d_1899 (MaxPooli (None, 4, 4, 120)         0         
_________________________________________________________________
conv2d_1907 (Conv2D)         (None, 4, 4, 144)         155664    
_________________________________________________________________
max_pooling2d_1900 (MaxPooli (None, 2, 2, 144)         0         
_________________________________________________________________
flatten_21 (Flatten)         (None, 576)               0         
_________________________________________________________________
dense_42 (Dense)             (None, 32)                18464     
_________________________________________________________________
dense_43 (Dense)             (None, 1)                 33        
=================================================================
Total params: 387,305
Trainable params: 387,305
Non-trainable params: 0
_________________________________________________________________


Fitting with 7 subsampling blocks.

WARNING:tensorflow:sample_weight modes were coerced from
  ...
    to  
  ['...']
WARNING:tensorflow:sample_weight modes were coerced from
…
259/259 [==============================] - 38s 146ms/step - loss: 0.6951 - tp: 316.0000 - fp: 132.0000 - tn: 981.0000 - fn: 2708.0000 - accuracy: 0.3135 - precision: 0.7054 - recall: 0.1045 - auc: 0.4899 - val_loss: 0.6842 - val_tp: 0.0000e+00 - val_fp: 0.0000e+00 - val_tn: 224.0000 - val_fn: 663.0000 - val_accuracy: 0.2525 - val_precision: 0.0000e+00 - val_recall: 0.0000e+00 - val_auc: 0.5000
Model: "sequential_30"
_________________________________________________________________
Layer (type)                 Output Shape              Param #   
=================================================================
conv2d_1908 (Conv2D)         (None, 224, 224, 24)      240       
_________________________________________________________________
max_pooling2d_1901 (MaxPooli (None, 112, 112, 24)      0         
_________________________________________________________________
conv2d_1909 (Conv2D)         (None, 112, 112, 24)      5208      
_________________________________________________________________
max_pooling2d_1902 (MaxPooli (None, 56, 56, 24)        0         
_________________________________________________________________
conv2d_1910 (Conv2D)         (None, 56, 56, 48)        10416     
_________________________________________________________________
max_pooling2d_1903 (MaxPooli (None, 28, 28, 48)        0         
_________________________________________________________________
conv2d_1911 (Conv2D)         (None, 28, 28, 72)        31176     
_________________________________________________________________
max_pooling2d_1904 (MaxPooli (None, 14, 14, 72)        0         
_________________________________________________________________
conv2d_1912 (Conv2D)         (None, 14, 14, 96)        62304     
_________________________________________________________________
max_pooling2d_1905 (MaxPooli (None, 7, 7, 96)          0         
_________________________________________________________________
conv2d_1913 (Conv2D)         (None, 7, 7, 120)         103800    
_________________________________________________________________
max_pooling2d_1906 (MaxPooli (None, 4, 4, 120)         0         
_________________________________________________________________
conv2d_1914 (Conv2D)         (None, 4, 4, 144)         155664    
_________________________________________________________________
max_pooling2d_1907 (MaxPooli (None, 2, 2, 144)         0         
_________________________________________________________________
conv2d_1915 (Conv2D)         (None, 2, 2, 168)         217896    
_________________________________________________________________
max_pooling2d_1908 (MaxPooli (None, 1, 1, 168)         0         
_________________________________________________________________
flatten_22 (Flatten)         (None, 168)               0         
_________________________________________________________________
dense_44 (Dense)             (None, 32)                5408      
_________________________________________________________________
dense_45 (Dense)             (None, 1)                 33        
=================================================================
Total params: 592,145
Trainable params: 592,145
Non-trainable params: 0
_________________________________________________________________

Fitting with 8 subsampling blocks.

WARNING:tensorflow:sample_weight modes were coerced from
  ...
    to  
  ['...']
WARNING:tensorflow:sample_weight modes were coerced from
…
