Model: "sequential_1"
_________________________________________________________________
Layer (type)                 Output Shape              Param #   
=================================================================
conv2d_3 (Conv2D)            (None, 224, 224, 40)      400       
_________________________________________________________________
batch_normalization (BatchNo (None, 224, 224, 40)      160       
_________________________________________________________________
conv2d_4 (Conv2D)            (None, 112, 112, 40)      14440     
_________________________________________________________________
conv2d_5 (Conv2D)            (None, 112, 112, 40)      14440     
_________________________________________________________________
batch_normalization_1 (Batch (None, 112, 112, 40)      160       
_________________________________________________________________
conv2d_6 (Conv2D)            (None, 56, 56, 40)        14440     
_________________________________________________________________
conv2d_7 (Conv2D)            (None, 56, 56, 80)        28880     
_________________________________________________________________
batch_normalization_2 (Batch (None, 56, 56, 80)        320       
_________________________________________________________________
conv2d_8 (Conv2D)            (None, 28, 28, 80)        57680     
_________________________________________________________________
conv2d_9 (Conv2D)            (None, 28, 28, 120)       86520     
_________________________________________________________________
batch_normalization_3 (Batch (None, 28, 28, 120)       480       
_________________________________________________________________
conv2d_10 (Conv2D)           (None, 14, 14, 120)       129720    
_________________________________________________________________
conv2d_11 (Conv2D)           (None, 14, 14, 160)       172960    
_________________________________________________________________
batch_normalization_4 (Batch (None, 14, 14, 160)       640       
_________________________________________________________________
conv2d_12 (Conv2D)           (None, 7, 7, 160)         230560    
_________________________________________________________________
conv2d_13 (Conv2D)           (None, 7, 7, 200)         288200    
_________________________________________________________________
batch_normalization_5 (Batch (None, 7, 7, 200)         800       
_________________________________________________________________
conv2d_14 (Conv2D)           (None, 4, 4, 200)         360200    
_________________________________________________________________
flatten_1 (Flatten)          (None, 3200)              0         
_________________________________________________________________
dense_2 (Dense)              (None, 40)                128040    
_________________________________________________________________
dense_3 (Dense)              (None, 1)                 41        
=================================================================
Total params: 1,529,081
Trainable params: 1,527,801
Non-trainable params: 1,280
_________________________________________________________________

Fitting with batch normalization
WARNING:tensorflow:sample_weight modes were coerced from
  ...
    to  
  ['...']
WARNING:tensorflow:sample_weight modes were coerced from
…
