Model: "sequential_16"
_________________________________________________________________
Layer (type)                 Output Shape              Param #   
=================================================================
conv2d_93 (Conv2D)           (None, 224, 224, 24)      240       
_________________________________________________________________
max_pooling2d_92 (MaxPooling (None, 112, 112, 24)      0         
_________________________________________________________________
conv2d_94 (Conv2D)           (None, 112, 112, 24)      5208      
_________________________________________________________________
max_pooling2d_93 (MaxPooling (None, 56, 56, 24)        0         
_________________________________________________________________
conv2d_95 (Conv2D)           (None, 56, 56, 48)        10416     
_________________________________________________________________
max_pooling2d_94 (MaxPooling (None, 28, 28, 48)        0         
_________________________________________________________________
conv2d_96 (Conv2D)           (None, 28, 28, 72)        31176     
_________________________________________________________________
max_pooling2d_95 (MaxPooling (None, 14, 14, 72)        0         
_________________________________________________________________
conv2d_97 (Conv2D)           (None, 14, 14, 96)        62304     
_________________________________________________________________
max_pooling2d_96 (MaxPooling (None, 7, 7, 96)          0         
_________________________________________________________________
conv2d_98 (Conv2D)           (None, 7, 7, 120)         103800    
_________________________________________________________________
max_pooling2d_97 (MaxPooling (None, 4, 4, 120)         0         
_________________________________________________________________
flatten_16 (Flatten)         (None, 1920)              0         
_________________________________________________________________
dense_32 (Dense)             (None, 20)                38420     
_________________________________________________________________
dense_33 (Dense)             (None, 1)                 21        
=================================================================
Total params: 251,585
Trainable params: 251,585
Non-trainable params: 0
_________________________________________________________________

Fitting with Dense layer size = 8192 .

WARNING:tensorflow:sample_weight modes were coerced from
  ...
    to  
  ['...']
WARNING:tensorflow:sample_weight modes were coerced from
…
259/259 [==============================] - 38s 147ms/step - loss: 0.2677 - tp: 2699.0000 - fp: 106.0000 - tn: 980.0000 - fn: 352.0000 - accuracy: 0.8893 - precision: 0.9622 - recall: 0.8846 - auc: 0.9548 - val_loss: 0.2223 - val_tp: 588.0000 - val_fp: 15.0000 - val_tn: 214.0000 - val_fn: 70.0000 - val_accuracy: 0.9042 - val_precision: 0.9751 - val_recall: 0.8936 - val_auc: 0.9682
INFO:tensorflow:Assets written to: models\dense_2ndpass_20\assets
Model: "sequential_17"
_________________________________________________________________
Layer (type)                 Output Shape              Param #   
=================================================================
conv2d_99 (Conv2D)           (None, 224, 224, 24)      240       
_________________________________________________________________
max_pooling2d_98 (MaxPooling (None, 112, 112, 24)      0         
_________________________________________________________________
conv2d_100 (Conv2D)          (None, 112, 112, 24)      5208      
_________________________________________________________________
max_pooling2d_99 (MaxPooling (None, 56, 56, 24)        0         
_________________________________________________________________
conv2d_101 (Conv2D)          (None, 56, 56, 48)        10416     
_________________________________________________________________
max_pooling2d_100 (MaxPoolin (None, 28, 28, 48)        0         
_________________________________________________________________
conv2d_102 (Conv2D)          (None, 28, 28, 72)        31176     
_________________________________________________________________
max_pooling2d_101 (MaxPoolin (None, 14, 14, 72)        0         
_________________________________________________________________
conv2d_103 (Conv2D)          (None, 14, 14, 96)        62304     
_________________________________________________________________
max_pooling2d_102 (MaxPoolin (None, 7, 7, 96)          0         
_________________________________________________________________
conv2d_104 (Conv2D)          (None, 7, 7, 120)         103800    
_________________________________________________________________
max_pooling2d_103 (MaxPoolin (None, 4, 4, 120)         0         
_________________________________________________________________
flatten_17 (Flatten)         (None, 1920)              0         
_________________________________________________________________
dense_34 (Dense)             (None, 24)                46104     
_________________________________________________________________
dense_35 (Dense)             (None, 1)                 25        
=================================================================
Total params: 259,273
Trainable params: 259,273
Non-trainable params: 0
_________________________________________________________________

Fitting with Dense layer size = 8192 .

WARNING:tensorflow:sample_weight modes were coerced from
  ...
    to  
  ['...']
WARNING:tensorflow:sample_weight modes were coerced from
…
259/259 [==============================] - 37s 144ms/step - loss: 0.2730 - tp: 2706.0000 - fp: 100.0000 - tn: 986.0000 - fn: 345.0000 - accuracy: 0.8924 - precision: 0.9644 - recall: 0.8869 - auc: 0.9515 - val_loss: 0.2573 - val_tp: 580.0000 - val_fp: 19.0000 - val_tn: 210.0000 - val_fn: 78.0000 - val_accuracy: 0.8906 - val_precision: 0.9683 - val_recall: 0.8815 - val_auc: 0.9595
INFO:tensorflow:Assets written to: models\dense_2ndpass_24\assets
Model: "sequential_18"
_________________________________________________________________
Layer (type)                 Output Shape              Param #   
=================================================================
conv2d_105 (Conv2D)          (None, 224, 224, 24)      240       
_________________________________________________________________
max_pooling2d_104 (MaxPoolin (None, 112, 112, 24)      0         
_________________________________________________________________
conv2d_106 (Conv2D)          (None, 112, 112, 24)      5208      
_________________________________________________________________
max_pooling2d_105 (MaxPoolin (None, 56, 56, 24)        0         
_________________________________________________________________
conv2d_107 (Conv2D)          (None, 56, 56, 48)        10416     
_________________________________________________________________
max_pooling2d_106 (MaxPoolin (None, 28, 28, 48)        0         
_________________________________________________________________
conv2d_108 (Conv2D)          (None, 28, 28, 72)        31176     
_________________________________________________________________
max_pooling2d_107 (MaxPoolin (None, 14, 14, 72)        0         
_________________________________________________________________
conv2d_109 (Conv2D)          (None, 14, 14, 96)        62304     
_________________________________________________________________
max_pooling2d_108 (MaxPoolin (None, 7, 7, 96)          0         
_________________________________________________________________
conv2d_110 (Conv2D)          (None, 7, 7, 120)         103800    
_________________________________________________________________
max_pooling2d_109 (MaxPoolin (None, 4, 4, 120)         0         
_________________________________________________________________
flatten_18 (Flatten)         (None, 1920)              0         
_________________________________________________________________
dense_36 (Dense)             (None, 28)                53788     
_________________________________________________________________
dense_37 (Dense)             (None, 1)                 29        
=================================================================
Total params: 266,961
Trainable params: 266,961
Non-trainable params: 0
_________________________________________________________________

Fitting with Dense layer size = 8192 .

WARNING:tensorflow:sample_weight modes were coerced from
  ...
    to  
  ['...']
WARNING:tensorflow:sample_weight modes were coerced from
…
259/259 [==============================] - 38s 145ms/step - loss: 0.2619 - tp: 2692.0000 - fp: 84.0000 - tn: 1002.0000 - fn: 359.0000 - accuracy: 0.8929 - precision: 0.9697 - recall: 0.8823 - auc: 0.9564 - val_loss: 0.2341 - val_tp: 584.0000 - val_fp: 12.0000 - val_tn: 217.0000 - val_fn: 74.0000 - val_accuracy: 0.9030 - val_precision: 0.9799 - val_recall: 0.8875 - val_auc: 0.9654
INFO:tensorflow:Assets written to: models\dense_2ndpass_28\assets
Model: "sequential_19"
_________________________________________________________________
Layer (type)                 Output Shape              Param #   
=================================================================
conv2d_111 (Conv2D)          (None, 224, 224, 24)      240       
_________________________________________________________________
max_pooling2d_110 (MaxPoolin (None, 112, 112, 24)      0         
_________________________________________________________________
conv2d_112 (Conv2D)          (None, 112, 112, 24)      5208      
_________________________________________________________________
max_pooling2d_111 (MaxPoolin (None, 56, 56, 24)        0         
_________________________________________________________________
conv2d_113 (Conv2D)          (None, 56, 56, 48)        10416     
_________________________________________________________________
max_pooling2d_112 (MaxPoolin (None, 28, 28, 48)        0         
_________________________________________________________________
conv2d_114 (Conv2D)          (None, 28, 28, 72)        31176     
_________________________________________________________________
max_pooling2d_113 (MaxPoolin (None, 14, 14, 72)        0         
_________________________________________________________________
conv2d_115 (Conv2D)          (None, 14, 14, 96)        62304     
_________________________________________________________________
max_pooling2d_114 (MaxPoolin (None, 7, 7, 96)          0         
_________________________________________________________________
conv2d_116 (Conv2D)          (None, 7, 7, 120)         103800    
_________________________________________________________________
max_pooling2d_115 (MaxPoolin (None, 4, 4, 120)         0         
_________________________________________________________________
flatten_19 (Flatten)         (None, 1920)              0         
_________________________________________________________________
dense_38 (Dense)             (None, 32)                61472     
_________________________________________________________________
dense_39 (Dense)             (None, 1)                 33        
=================================================================
Total params: 274,649
Trainable params: 274,649
Non-trainable params: 0
_________________________________________________________________


Fitting with Dense layer size = 8192 .

WARNING:tensorflow:sample_weight modes were coerced from
  ...
    to  
  ['...']
WARNING:tensorflow:sample_weight modes were coerced from
…
259/259 [==============================] - 37s 144ms/step - loss: 0.2576 - tp: 2700.0000 - fp: 97.0000 - tn: 989.0000 - fn: 351.0000 - accuracy: 0.8917 - precision: 0.9653 - recall: 0.8850 - auc: 0.9574 - val_loss: 0.2840 - val_tp: 552.0000 - val_fp: 12.0000 - val_tn: 217.0000 - val_fn: 106.0000 - val_accuracy: 0.8670 - val_precision: 0.9787 - val_recall: 0.8389 - val_auc: 0.9542
INFO:tensorflow:Assets written to: models\dense_2ndpass_32\assets

Model: "sequential_20"
_________________________________________________________________
Layer (type)                 Output Shape              Param #   
=================================================================
conv2d_117 (Conv2D)          (None, 224, 224, 24)      240       
_________________________________________________________________
max_pooling2d_116 (MaxPoolin (None, 112, 112, 24)      0         
_________________________________________________________________
conv2d_118 (Conv2D)          (None, 112, 112, 24)      5208      
_________________________________________________________________
max_pooling2d_117 (MaxPoolin (None, 56, 56, 24)        0         
_________________________________________________________________
conv2d_119 (Conv2D)          (None, 56, 56, 48)        10416     
_________________________________________________________________
max_pooling2d_118 (MaxPoolin (None, 28, 28, 48)        0         
_________________________________________________________________
conv2d_120 (Conv2D)          (None, 28, 28, 72)        31176     
_________________________________________________________________
max_pooling2d_119 (MaxPoolin (None, 14, 14, 72)        0         
_________________________________________________________________
conv2d_121 (Conv2D)          (None, 14, 14, 96)        62304     
_________________________________________________________________
max_pooling2d_120 (MaxPoolin (None, 7, 7, 96)          0         
_________________________________________________________________
conv2d_122 (Conv2D)          (None, 7, 7, 120)         103800    
_________________________________________________________________
max_pooling2d_121 (MaxPoolin (None, 4, 4, 120)         0         
_________________________________________________________________
flatten_20 (Flatten)         (None, 1920)              0         
_________________________________________________________________
dense_40 (Dense)             (None, 36)                69156     
_________________________________________________________________
dense_41 (Dense)             (None, 1)                 37        
=================================================================
Total params: 282,337
Trainable params: 282,337
Non-trainable params: 0
_________________________________________________________________

Fitting with Dense layer size = 8192 .

WARNING:tensorflow:sample_weight modes were coerced from
  ...
    to  
  ['...']
WARNING:tensorflow:sample_weight modes were coerced from
…
259/259 [==============================] - 38s 148ms/step - loss: 0.2688 - tp: 2693.0000 - fp: 98.0000 - tn: 988.0000 - fn: 358.0000 - accuracy: 0.8898 - precision: 0.9649 - recall: 0.8827 - auc: 0.9540 - val_loss: 0.2366 - val_tp: 590.0000 - val_fp: 11.0000 - val_tn: 218.0000 - val_fn: 68.0000 - val_accuracy: 0.9109 - val_precision: 0.9817 - val_recall: 0.8967 - val_auc: 0.9656
INFO:tensorflow:Assets written to: models\dense_2ndpass_36\assets
Model: "sequential_21"
_________________________________________________________________
Layer (type)                 Output Shape              Param #   
=================================================================
conv2d_123 (Conv2D)          (None, 224, 224, 24)      240       
_________________________________________________________________
max_pooling2d_122 (MaxPoolin (None, 112, 112, 24)      0         
_________________________________________________________________
conv2d_124 (Conv2D)          (None, 112, 112, 24)      5208      
_________________________________________________________________
max_pooling2d_123 (MaxPoolin (None, 56, 56, 24)        0         
_________________________________________________________________
conv2d_125 (Conv2D)          (None, 56, 56, 48)        10416     
_________________________________________________________________
max_pooling2d_124 (MaxPoolin (None, 28, 28, 48)        0         
_________________________________________________________________
conv2d_126 (Conv2D)          (None, 28, 28, 72)        31176     
_________________________________________________________________
max_pooling2d_125 (MaxPoolin (None, 14, 14, 72)        0         
_________________________________________________________________
conv2d_127 (Conv2D)          (None, 14, 14, 96)        62304     
_________________________________________________________________
max_pooling2d_126 (MaxPoolin (None, 7, 7, 96)          0         
_________________________________________________________________
conv2d_128 (Conv2D)          (None, 7, 7, 120)         103800    
_________________________________________________________________
max_pooling2d_127 (MaxPoolin (None, 4, 4, 120)         0         
_________________________________________________________________
flatten_21 (Flatten)         (None, 1920)              0         
_________________________________________________________________
dense_42 (Dense)             (None, 40)                76840     
_________________________________________________________________
dense_43 (Dense)             (None, 1)                 41        
=================================================================
Total params: 290,025
Trainable params: 290,025
Non-trainable params: 0
_________________________________________________________________

Fitting with Dense layer size = 8192 .

WARNING:tensorflow:sample_weight modes were coerced from
  ...
    to  
  ['...']
WARNING:tensorflow:sample_weight modes were coerced from
…
259/259 [==============================] - 37s 145ms/step - loss: 0.2628 - tp: 2680.0000 - fp: 87.0000 - tn: 999.0000 - fn: 371.0000 - accuracy: 0.8893 - precision: 0.9686 - recall: 0.8784 - auc: 0.9563 - val_loss: 0.2702 - val_tp: 605.0000 - val_fp: 33.0000 - val_tn: 196.0000 - val_fn: 53.0000 - val_accuracy: 0.9030 - val_precision: 0.9483 - val_recall: 0.9195 - val_auc: 0.9586
INFO:tensorflow:Assets written to: models\dense_2ndpass_40\assets
Model: "sequential_22"
_________________________________________________________________
Layer (type)                 Output Shape              Param #   
=================================================================
conv2d_129 (Conv2D)          (None, 224, 224, 24)      240       
_________________________________________________________________
max_pooling2d_128 (MaxPoolin (None, 112, 112, 24)      0         
_________________________________________________________________
conv2d_130 (Conv2D)          (None, 112, 112, 24)      5208      
_________________________________________________________________
max_pooling2d_129 (MaxPoolin (None, 56, 56, 24)        0         
_________________________________________________________________
conv2d_131 (Conv2D)          (None, 56, 56, 48)        10416     
_________________________________________________________________
max_pooling2d_130 (MaxPoolin (None, 28, 28, 48)        0         
_________________________________________________________________
conv2d_132 (Conv2D)          (None, 28, 28, 72)        31176     
_________________________________________________________________
max_pooling2d_131 (MaxPoolin (None, 14, 14, 72)        0         
_________________________________________________________________
conv2d_133 (Conv2D)          (None, 14, 14, 96)        62304     
_________________________________________________________________
max_pooling2d_132 (MaxPoolin (None, 7, 7, 96)          0         
_________________________________________________________________
conv2d_134 (Conv2D)          (None, 7, 7, 120)         103800    
_________________________________________________________________
max_pooling2d_133 (MaxPoolin (None, 4, 4, 120)         0         
_________________________________________________________________
flatten_22 (Flatten)         (None, 1920)              0         
_________________________________________________________________
dense_44 (Dense)             (None, 44)                84524     
_________________________________________________________________
dense_45 (Dense)             (None, 1)                 45        
=================================================================
Total params: 297,713
Trainable params: 297,713
Non-trainable params: 0
_________________________________________________________________

Fitting with Dense layer size = 8192 .

WARNING:tensorflow:sample_weight modes were coerced from
  ...
    to  
  ['...']
WARNING:tensorflow:sample_weight modes were coerced from
…
259/259 [==============================] - 38s 145ms/step - loss: 0.2745 - tp: 2694.0000 - fp: 108.0000 - tn: 978.0000 - fn: 357.0000 - accuracy: 0.8876 - precision: 0.9615 - recall: 0.8830 - auc: 0.9529 - val_loss: 0.2658 - val_tp: 555.0000 - val_fp: 10.0000 - val_tn: 219.0000 - val_fn: 103.0000 - val_accuracy: 0.8726 - val_precision: 0.9823 - val_recall: 0.8435 - val_auc: 0.9611
INFO:tensorflow:Assets written to: models\dense_2ndpass_44\assets
Model: "sequential_23"
_________________________________________________________________
Layer (type)                 Output Shape              Param #   
=================================================================
conv2d_135 (Conv2D)          (None, 224, 224, 24)      240       
_________________________________________________________________
max_pooling2d_134 (MaxPoolin (None, 112, 112, 24)      0         
_________________________________________________________________
conv2d_136 (Conv2D)          (None, 112, 112, 24)      5208      
_________________________________________________________________
max_pooling2d_135 (MaxPoolin (None, 56, 56, 24)        0         
_________________________________________________________________
conv2d_137 (Conv2D)          (None, 56, 56, 48)        10416     
_________________________________________________________________
max_pooling2d_136 (MaxPoolin (None, 28, 28, 48)        0         
_________________________________________________________________
conv2d_138 (Conv2D)          (None, 28, 28, 72)        31176     
_________________________________________________________________
max_pooling2d_137 (MaxPoolin (None, 14, 14, 72)        0         
_________________________________________________________________
conv2d_139 (Conv2D)          (None, 14, 14, 96)        62304     
_________________________________________________________________
max_pooling2d_138 (MaxPoolin (None, 7, 7, 96)          0         
_________________________________________________________________
conv2d_140 (Conv2D)          (None, 7, 7, 120)         103800    
_________________________________________________________________
max_pooling2d_139 (MaxPoolin (None, 4, 4, 120)         0         
_________________________________________________________________
flatten_23 (Flatten)         (None, 1920)              0         
_________________________________________________________________
dense_46 (Dense)             (None, 48)                92208     
_________________________________________________________________
dense_47 (Dense)             (None, 1)                 49        
=================================================================
Total params: 305,401
Trainable params: 305,401
Non-trainable params: 0
_________________________________________________________________


Fitting with Dense layer size = 8192 .

WARNING:tensorflow:sample_weight modes were coerced from
  ...
    to  
  ['...']
WARNING:tensorflow:sample_weight modes were coerced from
…
259/259 [==============================] - 38s 145ms/step - loss: 0.2458 - tp: 2756.0000 - fp: 88.0000 - tn: 998.0000 - fn: 295.0000 - accuracy: 0.9074 - precision: 0.9691 - recall: 0.9033 - auc: 0.9611 - val_loss: 0.3246 - val_tp: 515.0000 - val_fp: 10.0000 - val_tn: 219.0000 - val_fn: 143.0000 - val_accuracy: 0.8275 - val_precision: 0.9810 - val_recall: 0.7827 - val_auc: 0.9590
INFO:tensorflow:Assets written to: models\dense_2ndpass_48\assets

Model: "sequential_24"
_________________________________________________________________
Layer (type)                 Output Shape              Param #   
=================================================================
conv2d_141 (Conv2D)          (None, 224, 224, 24)      240       
_________________________________________________________________
max_pooling2d_140 (MaxPoolin (None, 112, 112, 24)      0         
_________________________________________________________________
conv2d_142 (Conv2D)          (None, 112, 112, 24)      5208      
_________________________________________________________________
max_pooling2d_141 (MaxPoolin (None, 56, 56, 24)        0         
_________________________________________________________________
conv2d_143 (Conv2D)          (None, 56, 56, 48)        10416     
_________________________________________________________________
max_pooling2d_142 (MaxPoolin (None, 28, 28, 48)        0         
_________________________________________________________________
conv2d_144 (Conv2D)          (None, 28, 28, 72)        31176     
_________________________________________________________________
max_pooling2d_143 (MaxPoolin (None, 14, 14, 72)        0         
_________________________________________________________________
conv2d_145 (Conv2D)          (None, 14, 14, 96)        62304     
_________________________________________________________________
max_pooling2d_144 (MaxPoolin (None, 7, 7, 96)          0         
_________________________________________________________________
conv2d_146 (Conv2D)          (None, 7, 7, 120)         103800    
_________________________________________________________________
max_pooling2d_145 (MaxPoolin (None, 4, 4, 120)         0         
_________________________________________________________________
flatten_24 (Flatten)         (None, 1920)              0         
_________________________________________________________________
dense_48 (Dense)             (None, 52)                99892     
_________________________________________________________________
dense_49 (Dense)             (None, 1)                 53        
=================================================================
Total params: 313,089
Trainable params: 313,089
Non-trainable params: 0
_________________________________________________________________

Fitting with Dense layer size = 8192 .

WARNING:tensorflow:sample_weight modes were coerced from
  ...
    to  
  ['...']
WARNING:tensorflow:sample_weight modes were coerced from
…
259/259 [==============================] - 37s 144ms/step - loss: 0.2910 - tp: 2665.0000 - fp: 102.0000 - tn: 984.0000 - fn: 386.0000 - accuracy: 0.8820 - precision: 0.9631 - recall: 0.8735 - auc: 0.9456 - val_loss: 0.2657 - val_tp: 611.0000 - val_fp: 33.0000 - val_tn: 196.0000 - val_fn: 47.0000 - val_accuracy: 0.9098 - val_precision: 0.9488 - val_recall: 0.9286 - val_auc: 0.9621
INFO:tensorflow:Assets written to: models\dense_2ndpass_52\assets
Model: "sequential_25"
_________________________________________________________________
Layer (type)                 Output Shape              Param #   
=================================================================
conv2d_147 (Conv2D)          (None, 224, 224, 24)      240       
_________________________________________________________________
max_pooling2d_146 (MaxPoolin (None, 112, 112, 24)      0         
_________________________________________________________________
conv2d_148 (Conv2D)          (None, 112, 112, 24)      5208      
_________________________________________________________________
max_pooling2d_147 (MaxPoolin (None, 56, 56, 24)        0         
_________________________________________________________________
conv2d_149 (Conv2D)          (None, 56, 56, 48)        10416     
_________________________________________________________________
max_pooling2d_148 (MaxPoolin (None, 28, 28, 48)        0         
_________________________________________________________________
conv2d_150 (Conv2D)          (None, 28, 28, 72)        31176     
_________________________________________________________________
max_pooling2d_149 (MaxPoolin (None, 14, 14, 72)        0         
_________________________________________________________________
conv2d_151 (Conv2D)          (None, 14, 14, 96)        62304     
_________________________________________________________________
max_pooling2d_150 (MaxPoolin (None, 7, 7, 96)          0         
_________________________________________________________________
conv2d_152 (Conv2D)          (None, 7, 7, 120)         103800    
_________________________________________________________________
max_pooling2d_151 (MaxPoolin (None, 4, 4, 120)         0         
_________________________________________________________________
flatten_25 (Flatten)         (None, 1920)              0         
_________________________________________________________________
dense_50 (Dense)             (None, 56)                107576    
_________________________________________________________________
dense_51 (Dense)             (None, 1)                 57        
=================================================================
Total params: 320,777
Trainable params: 320,777
Non-trainable params: 0
_________________________________________________________________

Fitting with Dense layer size = 8192 .

WARNING:tensorflow:sample_weight modes were coerced from
  ...
    to  
  ['...']
WARNING:tensorflow:sample_weight modes were coerced from
…
259/259 [==============================] - 38s 146ms/step - loss: 0.2617 - tp: 2698.0000 - fp: 99.0000 - tn: 987.0000 - fn: 353.0000 - accuracy: 0.8907 - precision: 0.9646 - recall: 0.8843 - auc: 0.9569 - val_loss: 0.2974 - val_tp: 619.0000 - val_fp: 39.0000 - val_tn: 190.0000 - val_fn: 39.0000 - val_accuracy: 0.9121 - val_precision: 0.9407 - val_recall: 0.9407 - val_auc: 0.9548
INFO:tensorflow:Assets written to: models\dense_2ndpass_56\assets
Model: "sequential_26"
_________________________________________________________________
Layer (type)                 Output Shape              Param #   
=================================================================
conv2d_153 (Conv2D)          (None, 224, 224, 24)      240       
_________________________________________________________________
max_pooling2d_152 (MaxPoolin (None, 112, 112, 24)      0         
_________________________________________________________________
conv2d_154 (Conv2D)          (None, 112, 112, 24)      5208      
_________________________________________________________________
max_pooling2d_153 (MaxPoolin (None, 56, 56, 24)        0         
_________________________________________________________________
conv2d_155 (Conv2D)          (None, 56, 56, 48)        10416     
_________________________________________________________________
max_pooling2d_154 (MaxPoolin (None, 28, 28, 48)        0         
_________________________________________________________________
conv2d_156 (Conv2D)          (None, 28, 28, 72)        31176     
_________________________________________________________________
max_pooling2d_155 (MaxPoolin (None, 14, 14, 72)        0         
_________________________________________________________________
conv2d_157 (Conv2D)          (None, 14, 14, 96)        62304     
_________________________________________________________________
max_pooling2d_156 (MaxPoolin (None, 7, 7, 96)          0         
_________________________________________________________________
conv2d_158 (Conv2D)          (None, 7, 7, 120)         103800    
_________________________________________________________________
max_pooling2d_157 (MaxPoolin (None, 4, 4, 120)         0         
_________________________________________________________________
flatten_26 (Flatten)         (None, 1920)              0         
_________________________________________________________________
dense_52 (Dense)             (None, 60)                115260    
_________________________________________________________________
dense_53 (Dense)             (None, 1)                 61        
=================================================================
Total params: 328,465
Trainable params: 328,465
Non-trainable params: 0
_________________________________________________________________

Fitting with Dense layer size = 8192 .

WARNING:tensorflow:sample_weight modes were coerced from
  ...
    to  
  ['...']
WARNING:tensorflow:sample_weight modes were coerced from
…
