Model: "sequential_3"
_________________________________________________________________
Layer (type)                 Output Shape              Param #   
=================================================================
conv2d_15 (Conv2D)           (None, 224, 224, 24)      240       
_________________________________________________________________
max_pooling2d_14 (MaxPooling (None, 112, 112, 24)      0         
_________________________________________________________________
conv2d_16 (Conv2D)           (None, 112, 112, 24)      5208      
_________________________________________________________________
max_pooling2d_15 (MaxPooling (None, 56, 56, 24)        0         
_________________________________________________________________
conv2d_17 (Conv2D)           (None, 56, 56, 48)        10416     
_________________________________________________________________
max_pooling2d_16 (MaxPooling (None, 28, 28, 48)        0         
_________________________________________________________________
conv2d_18 (Conv2D)           (None, 28, 28, 72)        31176     
_________________________________________________________________
max_pooling2d_17 (MaxPooling (None, 14, 14, 72)        0         
_________________________________________________________________
conv2d_19 (Conv2D)           (None, 14, 14, 96)        62304     
_________________________________________________________________
max_pooling2d_18 (MaxPooling (None, 7, 7, 96)          0         
_________________________________________________________________
conv2d_20 (Conv2D)           (None, 7, 7, 120)         103800    
_________________________________________________________________
max_pooling2d_19 (MaxPooling (None, 4, 4, 120)         0         
_________________________________________________________________
flatten_3 (Flatten)          (None, 1920)              0         
_________________________________________________________________
dense_6 (Dense)              (None, 2)                 3842      
_________________________________________________________________
dense_7 (Dense)              (None, 1)                 3         
=================================================================
Total params: 216,989
Trainable params: 216,989
Non-trainable params: 0
_________________________________________________________________

Fitting with Dense layer size = 2 .

WARNING:tensorflow:sample_weight modes were coerced from
  ...
    to  
  ['...']
WARNING:tensorflow:sample_weight modes were coerced from
…
WARNING:tensorflow:From C:\Users\gwael\.conda\envs\Env_gpu\lib\site-packages\tensorflow_core\python\ops\resource_variable_ops.py:1786: calling BaseResourceVariable.__init__ (from tensorflow.python.ops.resource_variable_ops) with constraint is deprecated and will be removed in a future version.
Instructions for updating:
If using Keras pass *_constraint arguments to layers.
INFO:tensorflow:Assets written to: models\dense_2\assets
Model: "sequential_4"
_________________________________________________________________
Layer (type)                 Output Shape              Param #   
=================================================================
conv2d_21 (Conv2D)           (None, 224, 224, 24)      240       
_________________________________________________________________
max_pooling2d_20 (MaxPooling (None, 112, 112, 24)      0         
_________________________________________________________________
conv2d_22 (Conv2D)           (None, 112, 112, 24)      5208      
_________________________________________________________________
max_pooling2d_21 (MaxPooling (None, 56, 56, 24)        0         
_________________________________________________________________
conv2d_23 (Conv2D)           (None, 56, 56, 48)        10416     
_________________________________________________________________
max_pooling2d_22 (MaxPooling (None, 28, 28, 48)        0         
_________________________________________________________________
conv2d_24 (Conv2D)           (None, 28, 28, 72)        31176     
_________________________________________________________________
max_pooling2d_23 (MaxPooling (None, 14, 14, 72)        0         
_________________________________________________________________
conv2d_25 (Conv2D)           (None, 14, 14, 96)        62304     
_________________________________________________________________
max_pooling2d_24 (MaxPooling (None, 7, 7, 96)          0         
_________________________________________________________________
conv2d_26 (Conv2D)           (None, 7, 7, 120)         103800    
_________________________________________________________________
max_pooling2d_25 (MaxPooling (None, 4, 4, 120)         0         
_________________________________________________________________
flatten_4 (Flatten)          (None, 1920)              0         
_________________________________________________________________
dense_8 (Dense)              (None, 4)                 7684      
_________________________________________________________________
dense_9 (Dense)              (None, 1)                 5         
=================================================================
Total params: 220,833
Trainable params: 220,833
Non-trainable params: 0
_________________________________________________________________

Fitting with Dense layer size = 4 .

WARNING:tensorflow:sample_weight modes were coerced from
  ...
    to  
  ['...']
WARNING:tensorflow:sample_weight modes were coerced from
…
259/259 [==============================] - 39s 149ms/step - loss: 0.2841 - tp: 2716.0000 - fp: 113.0000 - tn: 973.0000 - fn: 335.0000 - accuracy: 0.8917 - precision: 0.9601 - recall: 0.8902 - auc: 0.9514 - val_loss: 0.2914 - val_tp: 580.0000 - val_fp: 20.0000 - val_tn: 209.0000 - val_fn: 78.0000 - val_accuracy: 0.8895 - val_precision: 0.9667 - val_recall: 0.8815 - val_auc: 0.9465
INFO:tensorflow:Assets written to: models\dense_4\assets
Model: "sequential_5"
_________________________________________________________________
Layer (type)                 Output Shape              Param #   
=================================================================
conv2d_27 (Conv2D)           (None, 224, 224, 24)      240       
_________________________________________________________________
max_pooling2d_26 (MaxPooling (None, 112, 112, 24)      0         
_________________________________________________________________
conv2d_28 (Conv2D)           (None, 112, 112, 24)      5208      
_________________________________________________________________
max_pooling2d_27 (MaxPooling (None, 56, 56, 24)        0         
_________________________________________________________________
conv2d_29 (Conv2D)           (None, 56, 56, 48)        10416     
_________________________________________________________________
max_pooling2d_28 (MaxPooling (None, 28, 28, 48)        0         
_________________________________________________________________
conv2d_30 (Conv2D)           (None, 28, 28, 72)        31176     
_________________________________________________________________
max_pooling2d_29 (MaxPooling (None, 14, 14, 72)        0         
_________________________________________________________________
conv2d_31 (Conv2D)           (None, 14, 14, 96)        62304     
_________________________________________________________________
max_pooling2d_30 (MaxPooling (None, 7, 7, 96)          0         
_________________________________________________________________
conv2d_32 (Conv2D)           (None, 7, 7, 120)         103800    
_________________________________________________________________
max_pooling2d_31 (MaxPooling (None, 4, 4, 120)         0         
_________________________________________________________________
flatten_5 (Flatten)          (None, 1920)              0         
_________________________________________________________________
dense_10 (Dense)             (None, 8)                 15368     
_________________________________________________________________
dense_11 (Dense)             (None, 1)                 9         
=================================================================
Total params: 228,521
Trainable params: 228,521
Non-trainable params: 0
_________________________________________________________________

Fitting with Dense layer size = 8 .

WARNING:tensorflow:sample_weight modes were coerced from
  ...
    to  
  ['...']
WARNING:tensorflow:sample_weight modes were coerced from
…
259/259 [==============================] - 37s 144ms/step - loss: 0.2661 - tp: 2710.0000 - fp: 103.0000 - tn: 983.0000 - fn: 341.0000 - accuracy: 0.8927 - precision: 0.9634 - recall: 0.8882 - auc: 0.9548 - val_loss: 0.3231 - val_tp: 489.0000 - val_fp: 6.0000 - val_tn: 223.0000 - val_fn: 169.0000 - val_accuracy: 0.8027 - val_precision: 0.9879 - val_recall: 0.7432 - val_auc: 0.9590
INFO:tensorflow:Assets written to: models\dense_8\assets
Model: "sequential_6"
_________________________________________________________________
Layer (type)                 Output Shape              Param #   
=================================================================
conv2d_33 (Conv2D)           (None, 224, 224, 24)      240       
_________________________________________________________________
max_pooling2d_32 (MaxPooling (None, 112, 112, 24)      0         
_________________________________________________________________
conv2d_34 (Conv2D)           (None, 112, 112, 24)      5208      
_________________________________________________________________
max_pooling2d_33 (MaxPooling (None, 56, 56, 24)        0         
_________________________________________________________________
conv2d_35 (Conv2D)           (None, 56, 56, 48)        10416     
_________________________________________________________________
max_pooling2d_34 (MaxPooling (None, 28, 28, 48)        0         
_________________________________________________________________
conv2d_36 (Conv2D)           (None, 28, 28, 72)        31176     
_________________________________________________________________
max_pooling2d_35 (MaxPooling (None, 14, 14, 72)        0         
_________________________________________________________________
conv2d_37 (Conv2D)           (None, 14, 14, 96)        62304     
_________________________________________________________________
max_pooling2d_36 (MaxPooling (None, 7, 7, 96)          0         
_________________________________________________________________
conv2d_38 (Conv2D)           (None, 7, 7, 120)         103800    
_________________________________________________________________
max_pooling2d_37 (MaxPooling (None, 4, 4, 120)         0         
_________________________________________________________________
flatten_6 (Flatten)          (None, 1920)              0         
_________________________________________________________________
dense_12 (Dense)             (None, 16)                30736     
_________________________________________________________________
dense_13 (Dense)             (None, 1)                 17        
=================================================================
Total params: 243,897
Trainable params: 243,897
Non-trainable params: 0
_________________________________________________________________


Fitting with Dense layer size = 16 .

WARNING:tensorflow:sample_weight modes were coerced from
  ...
    to  
  ['...']
WARNING:tensorflow:sample_weight modes were coerced from
…
259/259 [==============================] - 39s 149ms/step - loss: 0.2848 - tp: 2689.0000 - fp: 105.0000 - tn: 981.0000 - fn: 362.0000 - accuracy: 0.8871 - precision: 0.9624 - recall: 0.8814 - auc: 0.9491 - val_loss: 0.2497 - val_tp: 603.0000 - val_fp: 22.0000 - val_tn: 207.0000 - val_fn: 55.0000 - val_accuracy: 0.9132 - val_precision: 0.9648 - val_recall: 0.9164 - val_auc: 0.9657
INFO:tensorflow:Assets written to: models\dense_16\assets

Model: "sequential_7"
_________________________________________________________________
Layer (type)                 Output Shape              Param #   
=================================================================
conv2d_39 (Conv2D)           (None, 224, 224, 24)      240       
_________________________________________________________________
max_pooling2d_38 (MaxPooling (None, 112, 112, 24)      0         
_________________________________________________________________
conv2d_40 (Conv2D)           (None, 112, 112, 24)      5208      
_________________________________________________________________
max_pooling2d_39 (MaxPooling (None, 56, 56, 24)        0         
_________________________________________________________________
conv2d_41 (Conv2D)           (None, 56, 56, 48)        10416     
_________________________________________________________________
max_pooling2d_40 (MaxPooling (None, 28, 28, 48)        0         
_________________________________________________________________
conv2d_42 (Conv2D)           (None, 28, 28, 72)        31176     
_________________________________________________________________
max_pooling2d_41 (MaxPooling (None, 14, 14, 72)        0         
_________________________________________________________________
conv2d_43 (Conv2D)           (None, 14, 14, 96)        62304     
_________________________________________________________________
max_pooling2d_42 (MaxPooling (None, 7, 7, 96)          0         
_________________________________________________________________
conv2d_44 (Conv2D)           (None, 7, 7, 120)         103800    
_________________________________________________________________
max_pooling2d_43 (MaxPooling (None, 4, 4, 120)         0         
_________________________________________________________________
flatten_7 (Flatten)          (None, 1920)              0         
_________________________________________________________________
dense_14 (Dense)             (None, 32)                61472     
_________________________________________________________________
dense_15 (Dense)             (None, 1)                 33        
=================================================================
Total params: 274,649
Trainable params: 274,649
Non-trainable params: 0
_________________________________________________________________

Fitting with Dense layer size = 32 .

WARNING:tensorflow:sample_weight modes were coerced from
  ...
    to  
  ['...']
WARNING:tensorflow:sample_weight modes were coerced from
…
259/259 [==============================] - 37s 144ms/step - loss: 0.2356 - tp: 2746.0000 - fp: 95.0000 - tn: 991.0000 - fn: 305.0000 - accuracy: 0.9033 - precision: 0.9666 - recall: 0.9000 - auc: 0.9650 - val_loss: 0.2318 - val_tp: 598.0000 - val_fp: 15.0000 - val_tn: 214.0000 - val_fn: 60.0000 - val_accuracy: 0.9154 - val_precision: 0.9755 - val_recall: 0.9088 - val_auc: 0.9640
INFO:tensorflow:Assets written to: models\dense_32\assets
Model: "sequential_8"
_________________________________________________________________
Layer (type)                 Output Shape              Param #   
=================================================================
conv2d_45 (Conv2D)           (None, 224, 224, 24)      240       
_________________________________________________________________
max_pooling2d_44 (MaxPooling (None, 112, 112, 24)      0         
_________________________________________________________________
conv2d_46 (Conv2D)           (None, 112, 112, 24)      5208      
_________________________________________________________________
max_pooling2d_45 (MaxPooling (None, 56, 56, 24)        0         
_________________________________________________________________
conv2d_47 (Conv2D)           (None, 56, 56, 48)        10416     
_________________________________________________________________
max_pooling2d_46 (MaxPooling (None, 28, 28, 48)        0         
_________________________________________________________________
conv2d_48 (Conv2D)           (None, 28, 28, 72)        31176     
_________________________________________________________________
max_pooling2d_47 (MaxPooling (None, 14, 14, 72)        0         
_________________________________________________________________
conv2d_49 (Conv2D)           (None, 14, 14, 96)        62304     
_________________________________________________________________
max_pooling2d_48 (MaxPooling (None, 7, 7, 96)          0         
_________________________________________________________________
conv2d_50 (Conv2D)           (None, 7, 7, 120)         103800    
_________________________________________________________________
max_pooling2d_49 (MaxPooling (None, 4, 4, 120)         0         
_________________________________________________________________
flatten_8 (Flatten)          (None, 1920)              0         
_________________________________________________________________
dense_16 (Dense)             (None, 64)                122944    
_________________________________________________________________
dense_17 (Dense)             (None, 1)                 65        
=================================================================
Total params: 336,153
Trainable params: 336,153
Non-trainable params: 0
_________________________________________________________________

Fitting with Dense layer size = 64 .

WARNING:tensorflow:sample_weight modes were coerced from
  ...
    to  
  ['...']
WARNING:tensorflow:sample_weight modes were coerced from
…
259/259 [==============================] - 37s 144ms/step - loss: 0.3357 - tp: 2521.0000 - fp: 107.0000 - tn: 979.0000 - fn: 530.0000 - accuracy: 0.8460 - precision: 0.9593 - recall: 0.8263 - auc: 0.9265 - val_loss: 0.3200 - val_tp: 524.0000 - val_fp: 12.0000 - val_tn: 217.0000 - val_fn: 134.0000 - val_accuracy: 0.8354 - val_precision: 0.9776 - val_recall: 0.7964 - val_auc: 0.9454
INFO:tensorflow:Assets written to: models\dense_64\assets
Model: "sequential_9"
_________________________________________________________________
Layer (type)                 Output Shape              Param #   
=================================================================
conv2d_51 (Conv2D)           (None, 224, 224, 24)      240       
_________________________________________________________________
max_pooling2d_50 (MaxPooling (None, 112, 112, 24)      0         
_________________________________________________________________
conv2d_52 (Conv2D)           (None, 112, 112, 24)      5208      
_________________________________________________________________
max_pooling2d_51 (MaxPooling (None, 56, 56, 24)        0         
_________________________________________________________________
conv2d_53 (Conv2D)           (None, 56, 56, 48)        10416     
_________________________________________________________________
max_pooling2d_52 (MaxPooling (None, 28, 28, 48)        0         
_________________________________________________________________
conv2d_54 (Conv2D)           (None, 28, 28, 72)        31176     
_________________________________________________________________
max_pooling2d_53 (MaxPooling (None, 14, 14, 72)        0         
_________________________________________________________________
conv2d_55 (Conv2D)           (None, 14, 14, 96)        62304     
_________________________________________________________________
max_pooling2d_54 (MaxPooling (None, 7, 7, 96)          0         
_________________________________________________________________
conv2d_56 (Conv2D)           (None, 7, 7, 120)         103800    
_________________________________________________________________
max_pooling2d_55 (MaxPooling (None, 4, 4, 120)         0         
_________________________________________________________________
flatten_9 (Flatten)          (None, 1920)              0         
_________________________________________________________________
dense_18 (Dense)             (None, 128)               245888    
_________________________________________________________________
dense_19 (Dense)             (None, 1)                 129       
=================================================================
Total params: 459,161
Trainable params: 459,161
Non-trainable params: 0
_________________________________________________________________

Fitting with Dense layer size = 128 .

WARNING:tensorflow:sample_weight modes were coerced from
  ...
    to  
  ['...']
WARNING:tensorflow:sample_weight modes were coerced from
…
259/259 [==============================] - 37s 144ms/step - loss: 0.2743 - tp: 2683.0000 - fp: 105.0000 - tn: 981.0000 - fn: 368.0000 - accuracy: 0.8857 - precision: 0.9623 - recall: 0.8794 - auc: 0.9527 - val_loss: 0.2845 - val_tp: 602.0000 - val_fp: 33.0000 - val_tn: 196.0000 - val_fn: 56.0000 - val_accuracy: 0.8997 - val_precision: 0.9480 - val_recall: 0.9149 - val_auc: 0.9515
INFO:tensorflow:Assets written to: models\dense_128\assets
Model: "sequential_10"
_________________________________________________________________
Layer (type)                 Output Shape              Param #   
=================================================================
conv2d_57 (Conv2D)           (None, 224, 224, 24)      240       
_________________________________________________________________
max_pooling2d_56 (MaxPooling (None, 112, 112, 24)      0         
_________________________________________________________________
conv2d_58 (Conv2D)           (None, 112, 112, 24)      5208      
_________________________________________________________________
max_pooling2d_57 (MaxPooling (None, 56, 56, 24)        0         
_________________________________________________________________
conv2d_59 (Conv2D)           (None, 56, 56, 48)        10416     
_________________________________________________________________
max_pooling2d_58 (MaxPooling (None, 28, 28, 48)        0         
_________________________________________________________________
conv2d_60 (Conv2D)           (None, 28, 28, 72)        31176     
_________________________________________________________________
max_pooling2d_59 (MaxPooling (None, 14, 14, 72)        0         
_________________________________________________________________
conv2d_61 (Conv2D)           (None, 14, 14, 96)        62304     
_________________________________________________________________
max_pooling2d_60 (MaxPooling (None, 7, 7, 96)          0         
_________________________________________________________________
conv2d_62 (Conv2D)           (None, 7, 7, 120)         103800    
_________________________________________________________________
max_pooling2d_61 (MaxPooling (None, 4, 4, 120)         0         
_________________________________________________________________
flatten_10 (Flatten)         (None, 1920)              0         
_________________________________________________________________
dense_20 (Dense)             (None, 256)               491776    
_________________________________________________________________
dense_21 (Dense)             (None, 1)                 257       
=================================================================
Total params: 705,177
Trainable params: 705,177
Non-trainable params: 0
_________________________________________________________________


Fitting with Dense layer size = 256 .

WARNING:tensorflow:sample_weight modes were coerced from
  ...
    to  
  ['...']
WARNING:tensorflow:sample_weight modes were coerced from
…
259/259 [==============================] - 37s 145ms/step - loss: 0.2672 - tp: 2712.0000 - fp: 99.0000 - tn: 987.0000 - fn: 339.0000 - accuracy: 0.8941 - precision: 0.9648 - recall: 0.8889 - auc: 0.9544 - val_loss: 0.2683 - val_tp: 542.0000 - val_fp: 9.0000 - val_tn: 220.0000 - val_fn: 116.0000 - val_accuracy: 0.8591 - val_precision: 0.9837 - val_recall: 0.8237 - val_auc: 0.9651
INFO:tensorflow:Assets written to: models\dense_256\assets

Model: "sequential_11"
_________________________________________________________________
Layer (type)                 Output Shape              Param #   
=================================================================
conv2d_63 (Conv2D)           (None, 224, 224, 24)      240       
_________________________________________________________________
max_pooling2d_62 (MaxPooling (None, 112, 112, 24)      0         
_________________________________________________________________
conv2d_64 (Conv2D)           (None, 112, 112, 24)      5208      
_________________________________________________________________
max_pooling2d_63 (MaxPooling (None, 56, 56, 24)        0         
_________________________________________________________________
conv2d_65 (Conv2D)           (None, 56, 56, 48)        10416     
_________________________________________________________________
max_pooling2d_64 (MaxPooling (None, 28, 28, 48)        0         
_________________________________________________________________
conv2d_66 (Conv2D)           (None, 28, 28, 72)        31176     
_________________________________________________________________
max_pooling2d_65 (MaxPooling (None, 14, 14, 72)        0         
_________________________________________________________________
conv2d_67 (Conv2D)           (None, 14, 14, 96)        62304     
_________________________________________________________________
max_pooling2d_66 (MaxPooling (None, 7, 7, 96)          0         
_________________________________________________________________
conv2d_68 (Conv2D)           (None, 7, 7, 120)         103800    
_________________________________________________________________
max_pooling2d_67 (MaxPooling (None, 4, 4, 120)         0         
_________________________________________________________________
flatten_11 (Flatten)         (None, 1920)              0         
_________________________________________________________________
dense_22 (Dense)             (None, 512)               983552    
_________________________________________________________________
dense_23 (Dense)             (None, 1)                 513       
=================================================================
Total params: 1,197,209
Trainable params: 1,197,209
Non-trainable params: 0
_________________________________________________________________

Fitting with Dense layer size = 512 .

WARNING:tensorflow:sample_weight modes were coerced from
  ...
    to  
  ['...']
WARNING:tensorflow:sample_weight modes were coerced from
…
259/259 [==============================] - 37s 144ms/step - loss: 0.2742 - tp: 2706.0000 - fp: 100.0000 - tn: 986.0000 - fn: 345.0000 - accuracy: 0.8924 - precision: 0.9644 - recall: 0.8869 - auc: 0.9517 - val_loss: 0.2455 - val_tp: 606.0000 - val_fp: 24.0000 - val_tn: 205.0000 - val_fn: 52.0000 - val_accuracy: 0.9143 - val_precision: 0.9619 - val_recall: 0.9210 - val_auc: 0.9654
INFO:tensorflow:Assets written to: models\dense_512\assets
Model: "sequential_12"
_________________________________________________________________
Layer (type)                 Output Shape              Param #   
=================================================================
conv2d_69 (Conv2D)           (None, 224, 224, 24)      240       
_________________________________________________________________
max_pooling2d_68 (MaxPooling (None, 112, 112, 24)      0         
_________________________________________________________________
conv2d_70 (Conv2D)           (None, 112, 112, 24)      5208      
_________________________________________________________________
max_pooling2d_69 (MaxPooling (None, 56, 56, 24)        0         
_________________________________________________________________
conv2d_71 (Conv2D)           (None, 56, 56, 48)        10416     
_________________________________________________________________
max_pooling2d_70 (MaxPooling (None, 28, 28, 48)        0         
_________________________________________________________________
conv2d_72 (Conv2D)           (None, 28, 28, 72)        31176     
_________________________________________________________________
max_pooling2d_71 (MaxPooling (None, 14, 14, 72)        0         
_________________________________________________________________
conv2d_73 (Conv2D)           (None, 14, 14, 96)        62304     
_________________________________________________________________
max_pooling2d_72 (MaxPooling (None, 7, 7, 96)          0         
_________________________________________________________________
conv2d_74 (Conv2D)           (None, 7, 7, 120)         103800    
_________________________________________________________________
max_pooling2d_73 (MaxPooling (None, 4, 4, 120)         0         
_________________________________________________________________
flatten_12 (Flatten)         (None, 1920)              0         
_________________________________________________________________
dense_24 (Dense)             (None, 1024)              1967104   
_________________________________________________________________
dense_25 (Dense)             (None, 1)                 1025      
=================================================================
Total params: 2,181,273
Trainable params: 2,181,273
Non-trainable params: 0
_________________________________________________________________

Fitting with Dense layer size = 1024 .

WARNING:tensorflow:sample_weight modes were coerced from
  ...
    to  
  ['...']
WARNING:tensorflow:sample_weight modes were coerced from
…
259/259 [==============================] - 37s 144ms/step - loss: 0.2888 - tp: 2671.0000 - fp: 100.0000 - tn: 986.0000 - fn: 380.0000 - accuracy: 0.8840 - precision: 0.9639 - recall: 0.8755 - auc: 0.9459 - val_loss: 0.2821 - val_tp: 560.0000 - val_fp: 10.0000 - val_tn: 219.0000 - val_fn: 98.0000 - val_accuracy: 0.8782 - val_precision: 0.9825 - val_recall: 0.8511 - val_auc: 0.9531
INFO:tensorflow:Assets written to: models\dense_1024\assets
Model: "sequential_13"
_________________________________________________________________
Layer (type)                 Output Shape              Param #   
=================================================================
conv2d_75 (Conv2D)           (None, 224, 224, 24)      240       
_________________________________________________________________
max_pooling2d_74 (MaxPooling (None, 112, 112, 24)      0         
_________________________________________________________________
conv2d_76 (Conv2D)           (None, 112, 112, 24)      5208      
_________________________________________________________________
max_pooling2d_75 (MaxPooling (None, 56, 56, 24)        0         
_________________________________________________________________
conv2d_77 (Conv2D)           (None, 56, 56, 48)        10416     
_________________________________________________________________
max_pooling2d_76 (MaxPooling (None, 28, 28, 48)        0         
_________________________________________________________________
conv2d_78 (Conv2D)           (None, 28, 28, 72)        31176     
_________________________________________________________________
max_pooling2d_77 (MaxPooling (None, 14, 14, 72)        0         
_________________________________________________________________
conv2d_79 (Conv2D)           (None, 14, 14, 96)        62304     
_________________________________________________________________
max_pooling2d_78 (MaxPooling (None, 7, 7, 96)          0         
_________________________________________________________________
conv2d_80 (Conv2D)           (None, 7, 7, 120)         103800    
_________________________________________________________________
max_pooling2d_79 (MaxPooling (None, 4, 4, 120)         0         
_________________________________________________________________
flatten_13 (Flatten)         (None, 1920)              0         
_________________________________________________________________
dense_26 (Dense)             (None, 2048)              3934208   
_________________________________________________________________
dense_27 (Dense)             (None, 1)                 2049      
=================================================================
Total params: 4,149,401
Trainable params: 4,149,401
Non-trainable params: 0
_________________________________________________________________

Fitting with Dense layer size = 2048 .

WARNING:tensorflow:sample_weight modes were coerced from
  ...
    to  
  ['...']
WARNING:tensorflow:sample_weight modes were coerced from
…
259/259 [==============================] - 37s 144ms/step - loss: 0.2867 - tp: 2654.0000 - fp: 103.0000 - tn: 983.0000 - fn: 397.0000 - accuracy: 0.8791 - precision: 0.9626 - recall: 0.8699 - auc: 0.9473 - val_loss: 0.2756 - val_tp: 579.0000 - val_fp: 21.0000 - val_tn: 208.0000 - val_fn: 79.0000 - val_accuracy: 0.8873 - val_precision: 0.9650 - val_recall: 0.8799 - val_auc: 0.9530
INFO:tensorflow:Assets written to: models\dense_2048\assets
Model: "sequential_14"
_________________________________________________________________
Layer (type)                 Output Shape              Param #   
=================================================================
conv2d_81 (Conv2D)           (None, 224, 224, 24)      240       
_________________________________________________________________
max_pooling2d_80 (MaxPooling (None, 112, 112, 24)      0         
_________________________________________________________________
conv2d_82 (Conv2D)           (None, 112, 112, 24)      5208      
_________________________________________________________________
max_pooling2d_81 (MaxPooling (None, 56, 56, 24)        0         
_________________________________________________________________
conv2d_83 (Conv2D)           (None, 56, 56, 48)        10416     
_________________________________________________________________
max_pooling2d_82 (MaxPooling (None, 28, 28, 48)        0         
_________________________________________________________________
conv2d_84 (Conv2D)           (None, 28, 28, 72)        31176     
_________________________________________________________________
max_pooling2d_83 (MaxPooling (None, 14, 14, 72)        0         
_________________________________________________________________
conv2d_85 (Conv2D)           (None, 14, 14, 96)        62304     
_________________________________________________________________
max_pooling2d_84 (MaxPooling (None, 7, 7, 96)          0         
_________________________________________________________________
conv2d_86 (Conv2D)           (None, 7, 7, 120)         103800    
_________________________________________________________________
max_pooling2d_85 (MaxPooling (None, 4, 4, 120)         0         
_________________________________________________________________
flatten_14 (Flatten)         (None, 1920)              0         
_________________________________________________________________
dense_28 (Dense)             (None, 4096)              7868416   
_________________________________________________________________
dense_29 (Dense)             (None, 1)                 4097      
=================================================================
Total params: 8,085,657
Trainable params: 8,085,657
Non-trainable params: 0
_________________________________________________________________


Fitting with Dense layer size = 4096 .

WARNING:tensorflow:sample_weight modes were coerced from
  ...
    to  
  ['...']
WARNING:tensorflow:sample_weight modes were coerced from
…
259/259 [==============================] - 37s 144ms/step - loss: 0.6896 - tp: 3051.0000 - fp: 1086.0000 - tn: 0.0000e+00 - fn: 0.0000e+00 - accuracy: 0.7375 - precision: 0.7375 - recall: 1.0000 - auc: 0.5000 - val_loss: 0.6850 - val_tp: 658.0000 - val_fp: 229.0000 - val_tn: 0.0000e+00 - val_fn: 0.0000e+00 - val_accuracy: 0.7418 - val_precision: 0.7418 - val_recall: 1.0000 - val_auc: 0.5000

INFO:tensorflow:Assets written to: models\dense_4096\assets
Model: "sequential_15"
_________________________________________________________________
Layer (type)                 Output Shape              Param #   
=================================================================
conv2d_87 (Conv2D)           (None, 224, 224, 24)      240       
_________________________________________________________________
max_pooling2d_86 (MaxPooling (None, 112, 112, 24)      0         
_________________________________________________________________
conv2d_88 (Conv2D)           (None, 112, 112, 24)      5208      
_________________________________________________________________
max_pooling2d_87 (MaxPooling (None, 56, 56, 24)        0         
_________________________________________________________________
conv2d_89 (Conv2D)           (None, 56, 56, 48)        10416     
_________________________________________________________________
max_pooling2d_88 (MaxPooling (None, 28, 28, 48)        0         
_________________________________________________________________
conv2d_90 (Conv2D)           (None, 28, 28, 72)        31176     
_________________________________________________________________
max_pooling2d_89 (MaxPooling (None, 14, 14, 72)        0         
_________________________________________________________________
conv2d_91 (Conv2D)           (None, 14, 14, 96)        62304     
_________________________________________________________________
max_pooling2d_90 (MaxPooling (None, 7, 7, 96)          0         
_________________________________________________________________
conv2d_92 (Conv2D)           (None, 7, 7, 120)         103800    
_________________________________________________________________
max_pooling2d_91 (MaxPooling (None, 4, 4, 120)         0         
_________________________________________________________________
flatten_15 (Flatten)         (None, 1920)              0         
_________________________________________________________________
dense_30 (Dense)             (None, 8192)              15736832  
_________________________________________________________________
dense_31 (Dense)             (None, 1)                 8193      
=================================================================
Total params: 15,958,169
Trainable params: 15,958,169
Non-trainable params: 0
_________________________________________________________________

Fitting with Dense layer size = 8192 .

WARNING:tensorflow:sample_weight modes were coerced from
  ...
    to  
  ['...']
WARNING:tensorflow:sample_weight modes were coerced from
…
