Model: "sequential_4"
_________________________________________________________________
Layer (type)                 Output Shape              Param #   
=================================================================
conv2d_33 (Conv2D)           (None, 224, 224, 40)      400       
_________________________________________________________________
batch_normalization_12 (Batc (None, 224, 224, 40)      160       
_________________________________________________________________
conv2d_34 (Conv2D)           (None, 112, 112, 40)      14440     
_________________________________________________________________
dropout (Dropout)            (None, 112, 112, 40)      0         
_________________________________________________________________
conv2d_35 (Conv2D)           (None, 112, 112, 40)      14440     
_________________________________________________________________
batch_normalization_13 (Batc (None, 112, 112, 40)      160       
_________________________________________________________________
conv2d_36 (Conv2D)           (None, 56, 56, 40)        14440     
_________________________________________________________________
dropout_1 (Dropout)          (None, 56, 56, 40)        0         
_________________________________________________________________
conv2d_37 (Conv2D)           (None, 56, 56, 80)        28880     
_________________________________________________________________
batch_normalization_14 (Batc (None, 56, 56, 80)        320       
_________________________________________________________________
conv2d_38 (Conv2D)           (None, 28, 28, 80)        57680     
_________________________________________________________________
dropout_2 (Dropout)          (None, 28, 28, 80)        0         
_________________________________________________________________
conv2d_39 (Conv2D)           (None, 28, 28, 120)       86520     
_________________________________________________________________
batch_normalization_15 (Batc (None, 28, 28, 120)       480       
_________________________________________________________________
conv2d_40 (Conv2D)           (None, 14, 14, 120)       129720    
_________________________________________________________________
dropout_3 (Dropout)          (None, 14, 14, 120)       0         
_________________________________________________________________
conv2d_41 (Conv2D)           (None, 14, 14, 160)       172960    
_________________________________________________________________
batch_normalization_16 (Batc (None, 14, 14, 160)       640       
_________________________________________________________________
conv2d_42 (Conv2D)           (None, 7, 7, 160)         230560    
_________________________________________________________________
dropout_4 (Dropout)          (None, 7, 7, 160)         0         
_________________________________________________________________
conv2d_43 (Conv2D)           (None, 7, 7, 200)         288200    
_________________________________________________________________
batch_normalization_17 (Batc (None, 7, 7, 200)         800       
_________________________________________________________________
conv2d_44 (Conv2D)           (None, 4, 4, 200)         360200    
_________________________________________________________________
dropout_5 (Dropout)          (None, 4, 4, 200)         0         
_________________________________________________________________
flatten_4 (Flatten)          (None, 3200)              0         
_________________________________________________________________
dense_8 (Dense)              (None, 40)                128040    
_________________________________________________________________
dense_9 (Dense)              (None, 1)                 41        
=================================================================
Total params: 1,529,081
Trainable params: 1,527,801
Non-trainable params: 1,280
_________________________________________________________________

Fitting with dropout = 10%.

WARNING:tensorflow:sample_weight modes were coerced from
  ...
    to  
  ['...']
WARNING:tensorflow:sample_weight modes were coerced from
…
