Model: "sequential_12"
_________________________________________________________________
Layer (type)                 Output Shape              Param #   
=================================================================
conv2d_129 (Conv2D)          (None, 224, 224, 40)      400       
_________________________________________________________________
max_pooling2d_8 (MaxPooling2 (None, 112, 112, 40)      0         
_________________________________________________________________
dropout_48 (Dropout)         (None, 112, 112, 40)      0         
_________________________________________________________________
conv2d_130 (Conv2D)          (None, 112, 112, 40)      14440     
_________________________________________________________________
max_pooling2d_9 (MaxPooling2 (None, 56, 56, 40)        0         
_________________________________________________________________
dropout_49 (Dropout)         (None, 56, 56, 40)        0         
_________________________________________________________________
conv2d_131 (Conv2D)          (None, 56, 56, 80)        28880     
_________________________________________________________________
max_pooling2d_10 (MaxPooling (None, 28, 28, 80)        0         
_________________________________________________________________
dropout_50 (Dropout)         (None, 28, 28, 80)        0         
_________________________________________________________________
conv2d_132 (Conv2D)          (None, 28, 28, 120)       86520     
_________________________________________________________________
max_pooling2d_11 (MaxPooling (None, 14, 14, 120)       0         
_________________________________________________________________
dropout_51 (Dropout)         (None, 14, 14, 120)       0         
_________________________________________________________________
conv2d_133 (Conv2D)          (None, 14, 14, 160)       172960    
_________________________________________________________________
max_pooling2d_12 (MaxPooling (None, 7, 7, 160)         0         
_________________________________________________________________
dropout_52 (Dropout)         (None, 7, 7, 160)         0         
_________________________________________________________________
conv2d_134 (Conv2D)          (None, 7, 7, 200)         288200    
_________________________________________________________________
max_pooling2d_13 (MaxPooling (None, 4, 4, 200)         0         
_________________________________________________________________
dropout_53 (Dropout)         (None, 4, 4, 200)         0         
_________________________________________________________________
flatten_12 (Flatten)         (None, 3200)              0         
_________________________________________________________________
dense_24 (Dense)             (None, 40)                128040    
_________________________________________________________________
dense_25 (Dense)             (None, 1)                 41        
=================================================================
Total params: 719,481
Trainable params: 719,481
Non-trainable params: 0
_________________________________________________________________

Fitting with dropout = 10%.

WARNING:tensorflow:sample_weight modes were coerced from
  ...
    to  
  ['...']
WARNING:tensorflow:sample_weight modes were coerced from
  ...
…
