Model: "sequential_52"
_________________________________________________________________
Layer (type)                 Output Shape              Param #   
=================================================================
conv2d_2010 (Conv2D)         (None, 224, 224, 2)       20        
_________________________________________________________________
max_pooling2d_2003 (MaxPooli (None, 112, 112, 2)       0         
_________________________________________________________________
conv2d_2011 (Conv2D)         (None, 112, 112, 2)       38        
_________________________________________________________________
max_pooling2d_2004 (MaxPooli (None, 56, 56, 2)         0         
_________________________________________________________________
conv2d_2012 (Conv2D)         (None, 56, 56, 4)         76        
_________________________________________________________________
max_pooling2d_2005 (MaxPooli (None, 28, 28, 4)         0         
_________________________________________________________________
conv2d_2013 (Conv2D)         (None, 28, 28, 6)         222       
_________________________________________________________________
max_pooling2d_2006 (MaxPooli (None, 14, 14, 6)         0         
_________________________________________________________________
conv2d_2014 (Conv2D)         (None, 14, 14, 8)         440       
_________________________________________________________________
max_pooling2d_2007 (MaxPooli (None, 7, 7, 8)           0         
_________________________________________________________________
conv2d_2015 (Conv2D)         (None, 7, 7, 10)          730       
_________________________________________________________________
max_pooling2d_2008 (MaxPooli (None, 4, 4, 10)          0         
_________________________________________________________________
flatten_41 (Flatten)         (None, 160)               0         
_________________________________________________________________
dense_82 (Dense)             (None, 32)                5152      
_________________________________________________________________
dense_83 (Dense)             (None, 1)                 33        
=================================================================
Total params: 6,711
Trainable params: 6,711
Non-trainable params: 0
_________________________________________________________________

Fitting with filters size = 2 .

WARNING:tensorflow:sample_weight modes were coerced from
  ...
    to  
  ['...']
WARNING:tensorflow:sample_weight modes were coerced from
  ...
…
259/259 [==============================] - 37s 145ms/step - loss: 0.3610 - tp: 2466.0000 - fp: 127.0000 - tn: 986.0000 - fn: 558.0000 - accuracy: 0.8344 - precision: 0.9510 - recall: 0.8155 - auc: 0.9155 - val_loss: 0.3530 - val_tp: 566.0000 - val_fp: 29.0000 - val_tn: 195.0000 - val_fn: 97.0000 - val_accuracy: 0.8579 - val_precision: 0.9513 - val_recall: 0.8537 - val_auc: 0.9157
INFO:tensorflow:Assets written to: models\kernel_2\assets
Model: "sequential_53"
_________________________________________________________________
Layer (type)                 Output Shape              Param #   
=================================================================
conv2d_2016 (Conv2D)         (None, 224, 224, 4)       40        
_________________________________________________________________
max_pooling2d_2009 (MaxPooli (None, 112, 112, 4)       0         
_________________________________________________________________
conv2d_2017 (Conv2D)         (None, 112, 112, 4)       148       
_________________________________________________________________
max_pooling2d_2010 (MaxPooli (None, 56, 56, 4)         0         
_________________________________________________________________
conv2d_2018 (Conv2D)         (None, 56, 56, 8)         296       
_________________________________________________________________
max_pooling2d_2011 (MaxPooli (None, 28, 28, 8)         0         
_________________________________________________________________
conv2d_2019 (Conv2D)         (None, 28, 28, 12)        876       
_________________________________________________________________
max_pooling2d_2012 (MaxPooli (None, 14, 14, 12)        0         
_________________________________________________________________
conv2d_2020 (Conv2D)         (None, 14, 14, 16)        1744      
_________________________________________________________________
max_pooling2d_2013 (MaxPooli (None, 7, 7, 16)          0         
_________________________________________________________________
conv2d_2021 (Conv2D)         (None, 7, 7, 20)          2900      
_________________________________________________________________
max_pooling2d_2014 (MaxPooli (None, 4, 4, 20)          0         
_________________________________________________________________
flatten_42 (Flatten)         (None, 320)               0         
_________________________________________________________________
dense_84 (Dense)             (None, 32)                10272     
_________________________________________________________________
dense_85 (Dense)             (None, 1)                 33        
=================================================================
Total params: 16,309
Trainable params: 16,309
Non-trainable params: 0
_________________________________________________________________

Fitting with filters size = 4 .

WARNING:tensorflow:sample_weight modes were coerced from
  ...
    to  
  ['...']
WARNING:tensorflow:sample_weight modes were coerced from
  ...
…
259/259 [==============================] - 37s 145ms/step - loss: 0.3084 - tp: 2587.0000 - fp: 109.0000 - tn: 1004.0000 - fn: 437.0000 - accuracy: 0.8680 - precision: 0.9596 - recall: 0.8555 - auc: 0.9401 - val_loss: 0.2808 - val_tp: 577.0000 - val_fp: 23.0000 - val_tn: 201.0000 - val_fn: 86.0000 - val_accuracy: 0.8771 - val_precision: 0.9617 - val_recall: 0.8703 - val_auc: 0.9493
INFO:tensorflow:Assets written to: models\kernel_4\assets
Model: "sequential_54"
_________________________________________________________________
Layer (type)                 Output Shape              Param #   
=================================================================
conv2d_2022 (Conv2D)         (None, 224, 224, 8)       80        
_________________________________________________________________
max_pooling2d_2015 (MaxPooli (None, 112, 112, 8)       0         
_________________________________________________________________
conv2d_2023 (Conv2D)         (None, 112, 112, 8)       584       
_________________________________________________________________
max_pooling2d_2016 (MaxPooli (None, 56, 56, 8)         0         
_________________________________________________________________
conv2d_2024 (Conv2D)         (None, 56, 56, 16)        1168      
_________________________________________________________________
max_pooling2d_2017 (MaxPooli (None, 28, 28, 16)        0         
_________________________________________________________________
conv2d_2025 (Conv2D)         (None, 28, 28, 24)        3480      
_________________________________________________________________
max_pooling2d_2018 (MaxPooli (None, 14, 14, 24)        0         
_________________________________________________________________
conv2d_2026 (Conv2D)         (None, 14, 14, 32)        6944      
_________________________________________________________________
max_pooling2d_2019 (MaxPooli (None, 7, 7, 32)          0         
_________________________________________________________________
conv2d_2027 (Conv2D)         (None, 7, 7, 40)          11560     
_________________________________________________________________
max_pooling2d_2020 (MaxPooli (None, 4, 4, 40)          0         
_________________________________________________________________
flatten_43 (Flatten)         (None, 640)               0         
_________________________________________________________________
dense_86 (Dense)             (None, 32)                20512     
_________________________________________________________________
dense_87 (Dense)             (None, 1)                 33        
=================================================================
Total params: 44,361
Trainable params: 44,361
Non-trainable params: 0
_________________________________________________________________

Fitting with filters size = 8 .

WARNING:tensorflow:sample_weight modes were coerced from
  ...
    to  
  ['...']
WARNING:tensorflow:sample_weight modes were coerced from
  ...
…
259/259 [==============================] - 37s 145ms/step - loss: 0.2942 - tp: 2567.0000 - fp: 92.0000 - tn: 1021.0000 - fn: 457.0000 - accuracy: 0.8673 - precision: 0.9654 - recall: 0.8489 - auc: 0.9447 - val_loss: 0.3089 - val_tp: 578.0000 - val_fp: 27.0000 - val_tn: 197.0000 - val_fn: 85.0000 - val_accuracy: 0.8737 - val_precision: 0.9554 - val_recall: 0.8718 - val_auc: 0.9390
INFO:tensorflow:Assets written to: models\kernel_8\assets
Model: "sequential_55"
_________________________________________________________________
Layer (type)                 Output Shape              Param #   
=================================================================
conv2d_2028 (Conv2D)         (None, 224, 224, 16)      160       
_________________________________________________________________
max_pooling2d_2021 (MaxPooli (None, 112, 112, 16)      0         
_________________________________________________________________
conv2d_2029 (Conv2D)         (None, 112, 112, 16)      2320      
_________________________________________________________________
max_pooling2d_2022 (MaxPooli (None, 56, 56, 16)        0         
_________________________________________________________________
conv2d_2030 (Conv2D)         (None, 56, 56, 32)        4640      
_________________________________________________________________
max_pooling2d_2023 (MaxPooli (None, 28, 28, 32)        0         
_________________________________________________________________
conv2d_2031 (Conv2D)         (None, 28, 28, 48)        13872     
_________________________________________________________________
max_pooling2d_2024 (MaxPooli (None, 14, 14, 48)        0         
_________________________________________________________________
conv2d_2032 (Conv2D)         (None, 14, 14, 64)        27712     
_________________________________________________________________
max_pooling2d_2025 (MaxPooli (None, 7, 7, 64)          0         
_________________________________________________________________
conv2d_2033 (Conv2D)         (None, 7, 7, 80)          46160     
_________________________________________________________________
max_pooling2d_2026 (MaxPooli (None, 4, 4, 80)          0         
_________________________________________________________________
flatten_44 (Flatten)         (None, 1280)              0         
_________________________________________________________________
dense_88 (Dense)             (None, 32)                40992     
_________________________________________________________________
dense_89 (Dense)             (None, 1)                 33        
=================================================================
Total params: 135,889
Trainable params: 135,889
Non-trainable params: 0
_________________________________________________________________


Fitting with filters size = 16 .

WARNING:tensorflow:sample_weight modes were coerced from
  ...
    to  
  ['...']
WARNING:tensorflow:sample_weight modes were coerced from
…
259/259 [==============================] - 40s 154ms/step - loss: 0.2659 - tp: 2684.0000 - fp: 103.0000 - tn: 1010.0000 - fn: 340.0000 - accuracy: 0.8929 - precision: 0.9630 - recall: 0.8876 - auc: 0.9566 - val_loss: 0.2381 - val_tp: 589.0000 - val_fp: 20.0000 - val_tn: 204.0000 - val_fn: 74.0000 - val_accuracy: 0.8940 - val_precision: 0.9672 - val_recall: 0.8884 - val_auc: 0.9623
INFO:tensorflow:Assets written to: models\kernel_16\assets

Model: "sequential_56"
_________________________________________________________________
Layer (type)                 Output Shape              Param #   
=================================================================
conv2d_2034 (Conv2D)         (None, 224, 224, 24)      240       
_________________________________________________________________
max_pooling2d_2027 (MaxPooli (None, 112, 112, 24)      0         
_________________________________________________________________
conv2d_2035 (Conv2D)         (None, 112, 112, 24)      5208      
_________________________________________________________________
max_pooling2d_2028 (MaxPooli (None, 56, 56, 24)        0         
_________________________________________________________________
conv2d_2036 (Conv2D)         (None, 56, 56, 48)        10416     
_________________________________________________________________
max_pooling2d_2029 (MaxPooli (None, 28, 28, 48)        0         
_________________________________________________________________
conv2d_2037 (Conv2D)         (None, 28, 28, 72)        31176     
_________________________________________________________________
max_pooling2d_2030 (MaxPooli (None, 14, 14, 72)        0         
_________________________________________________________________
conv2d_2038 (Conv2D)         (None, 14, 14, 96)        62304     
_________________________________________________________________
max_pooling2d_2031 (MaxPooli (None, 7, 7, 96)          0         
_________________________________________________________________
conv2d_2039 (Conv2D)         (None, 7, 7, 120)         103800    
_________________________________________________________________
max_pooling2d_2032 (MaxPooli (None, 4, 4, 120)         0         
_________________________________________________________________
flatten_45 (Flatten)         (None, 1920)              0         
_________________________________________________________________
dense_90 (Dense)             (None, 32)                61472     
_________________________________________________________________
dense_91 (Dense)             (None, 1)                 33        
=================================================================
Total params: 274,649
Trainable params: 274,649
Non-trainable params: 0
_________________________________________________________________

Fitting with filters size = 24 .

WARNING:tensorflow:sample_weight modes were coerced from
  ...
    to  
  ['...']
WARNING:tensorflow:sample_weight modes were coerced from
…
259/259 [==============================] - 38s 146ms/step - loss: 0.2518 - tp: 2712.0000 - fp: 107.0000 - tn: 1006.0000 - fn: 312.0000 - accuracy: 0.8987 - precision: 0.9620 - recall: 0.8968 - auc: 0.9608 - val_loss: 0.3221 - val_tp: 619.0000 - val_fp: 39.0000 - val_tn: 185.0000 - val_fn: 44.0000 - val_accuracy: 0.9064 - val_precision: 0.9407 - val_recall: 0.9336 - val_auc: 0.9453
INFO:tensorflow:Assets written to: models\kernel_24\assets
Model: "sequential_57"
_________________________________________________________________
Layer (type)                 Output Shape              Param #   
=================================================================
conv2d_2040 (Conv2D)         (None, 224, 224, 32)      320       
_________________________________________________________________
max_pooling2d_2033 (MaxPooli (None, 112, 112, 32)      0         
_________________________________________________________________
conv2d_2041 (Conv2D)         (None, 112, 112, 32)      9248      
_________________________________________________________________
max_pooling2d_2034 (MaxPooli (None, 56, 56, 32)        0         
_________________________________________________________________
conv2d_2042 (Conv2D)         (None, 56, 56, 64)        18496     
_________________________________________________________________
max_pooling2d_2035 (MaxPooli (None, 28, 28, 64)        0         
_________________________________________________________________
conv2d_2043 (Conv2D)         (None, 28, 28, 96)        55392     
_________________________________________________________________
max_pooling2d_2036 (MaxPooli (None, 14, 14, 96)        0         
_________________________________________________________________
conv2d_2044 (Conv2D)         (None, 14, 14, 128)       110720    
_________________________________________________________________
max_pooling2d_2037 (MaxPooli (None, 7, 7, 128)         0         
_________________________________________________________________
conv2d_2045 (Conv2D)         (None, 7, 7, 160)         184480    
_________________________________________________________________
max_pooling2d_2038 (MaxPooli (None, 4, 4, 160)         0         
_________________________________________________________________
flatten_46 (Flatten)         (None, 2560)              0         
_________________________________________________________________
dense_92 (Dense)             (None, 32)                81952     
_________________________________________________________________
dense_93 (Dense)             (None, 1)                 33        
=================================================================
Total params: 460,641
Trainable params: 460,641
Non-trainable params: 0
_________________________________________________________________

Fitting with filters size = 32 .

WARNING:tensorflow:sample_weight modes were coerced from
  ...
    to  
  ['...']
WARNING:tensorflow:sample_weight modes were coerced from
…
259/259 [==============================] - 38s 146ms/step - loss: 0.2853 - tp: 2679.0000 - fp: 123.0000 - tn: 990.0000 - fn: 345.0000 - accuracy: 0.8869 - precision: 0.9561 - recall: 0.8859 - auc: 0.9500 - val_loss: 0.3321 - val_tp: 523.0000 - val_fp: 11.0000 - val_tn: 213.0000 - val_fn: 140.0000 - val_accuracy: 0.8298 - val_precision: 0.9794 - val_recall: 0.7888 - val_auc: 0.9520
INFO:tensorflow:Assets written to: models\kernel_32\assets
Model: "sequential_58"
_________________________________________________________________
Layer (type)                 Output Shape              Param #   
=================================================================
conv2d_2046 (Conv2D)         (None, 224, 224, 48)      480       
_________________________________________________________________
max_pooling2d_2039 (MaxPooli (None, 112, 112, 48)      0         
_________________________________________________________________
conv2d_2047 (Conv2D)         (None, 112, 112, 48)      20784     
_________________________________________________________________
max_pooling2d_2040 (MaxPooli (None, 56, 56, 48)        0         
_________________________________________________________________
conv2d_2048 (Conv2D)         (None, 56, 56, 96)        41568     
_________________________________________________________________
max_pooling2d_2041 (MaxPooli (None, 28, 28, 96)        0         
_________________________________________________________________
conv2d_2049 (Conv2D)         (None, 28, 28, 144)       124560    
_________________________________________________________________
max_pooling2d_2042 (MaxPooli (None, 14, 14, 144)       0         
_________________________________________________________________
conv2d_2050 (Conv2D)         (None, 14, 14, 192)       249024    
_________________________________________________________________
max_pooling2d_2043 (MaxPooli (None, 7, 7, 192)         0         
_________________________________________________________________
conv2d_2051 (Conv2D)         (None, 7, 7, 240)         414960    
_________________________________________________________________
max_pooling2d_2044 (MaxPooli (None, 4, 4, 240)         0         
_________________________________________________________________
flatten_47 (Flatten)         (None, 3840)              0         
_________________________________________________________________
dense_94 (Dense)             (None, 32)                122912    
_________________________________________________________________
dense_95 (Dense)             (None, 1)                 33        
=================================================================
Total params: 974,321
Trainable params: 974,321
Non-trainable params: 0
_________________________________________________________________

Fitting with filters size = 48 .

WARNING:tensorflow:sample_weight modes were coerced from
  ...
    to  
  ['...']
WARNING:tensorflow:sample_weight modes were coerced from
…
259/259 [==============================] - 38s 145ms/step - loss: 0.6951 - tp: 0.0000e+00 - fp: 0.0000e+00 - tn: 1113.0000 - fn: 3024.0000 - accuracy: 0.2690 - precision: 0.0000e+00 - recall: 0.0000e+00 - auc: 0.4865 - val_loss: 0.6843 - val_tp: 0.0000e+00 - val_fp: 0.0000e+00 - val_tn: 224.0000 - val_fn: 663.0000 - val_accuracy: 0.2525 - val_precision: 0.0000e+00 - val_recall: 0.0000e+00 - val_auc: 0.5000
INFO:tensorflow:Assets written to: models\kernel_48\assets
Model: "sequential_59"
_________________________________________________________________
Layer (type)                 Output Shape              Param #   
=================================================================
conv2d_2052 (Conv2D)         (None, 224, 224, 64)      640       
_________________________________________________________________
max_pooling2d_2045 (MaxPooli (None, 112, 112, 64)      0         
_________________________________________________________________
conv2d_2053 (Conv2D)         (None, 112, 112, 64)      36928     
_________________________________________________________________
max_pooling2d_2046 (MaxPooli (None, 56, 56, 64)        0         
_________________________________________________________________
conv2d_2054 (Conv2D)         (None, 56, 56, 128)       73856     
_________________________________________________________________
max_pooling2d_2047 (MaxPooli (None, 28, 28, 128)       0         
_________________________________________________________________
conv2d_2055 (Conv2D)         (None, 28, 28, 192)       221376    
_________________________________________________________________
max_pooling2d_2048 (MaxPooli (None, 14, 14, 192)       0         
_________________________________________________________________
conv2d_2056 (Conv2D)         (None, 14, 14, 256)       442624    
_________________________________________________________________
max_pooling2d_2049 (MaxPooli (None, 7, 7, 256)         0         
_________________________________________________________________

conv2d_2057 (Conv2D)         (None, 7, 7, 320)         737600    
_________________________________________________________________
max_pooling2d_2050 (MaxPooli (None, 4, 4, 320)         0         
_________________________________________________________________
flatten_48 (Flatten)         (None, 5120)              0         
_________________________________________________________________
dense_96 (Dense)             (None, 32)                163872    
_________________________________________________________________
dense_97 (Dense)             (None, 1)                 33        
=================================================================
Total params: 1,676,929
Trainable params: 1,676,929
Non-trainable params: 0
_________________________________________________________________

Fitting with filters size = 64 .

WARNING:tensorflow:sample_weight modes were coerced from
  ...
    to  
  ['...']
WARNING:tensorflow:sample_weight modes were coerced from
…
