Model: "sequential_22"
_________________________________________________________________
Layer (type)                 Output Shape              Param #   
=================================================================
conv2d_189 (Conv2D)          (None, 224, 224, 40)      400       
_________________________________________________________________
max_pooling2d_68 (MaxPooling (None, 112, 112, 40)      0         
_________________________________________________________________
conv2d_190 (Conv2D)          (None, 112, 112, 80)      28880     
_________________________________________________________________
max_pooling2d_69 (MaxPooling (None, 56, 56, 80)        0         
_________________________________________________________________
conv2d_191 (Conv2D)          (None, 56, 56, 120)       86520     
_________________________________________________________________
max_pooling2d_70 (MaxPooling (None, 28, 28, 120)       0         
_________________________________________________________________
conv2d_192 (Conv2D)          (None, 28, 28, 160)       172960    
_________________________________________________________________
max_pooling2d_71 (MaxPooling (None, 14, 14, 160)       0         
_________________________________________________________________
conv2d_193 (Conv2D)          (None, 14, 14, 200)       288200    
_________________________________________________________________
max_pooling2d_72 (MaxPooling (None, 7, 7, 200)         0         
_________________________________________________________________
conv2d_194 (Conv2D)          (None, 7, 7, 240)         432240    
_________________________________________________________________
max_pooling2d_73 (MaxPooling (None, 4, 4, 240)         0         
_________________________________________________________________
flatten_22 (Flatten)         (None, 3840)              0         
_________________________________________________________________
dense_44 (Dense)             (None, 40)                153640    
_________________________________________________________________
dense_45 (Dense)             (None, 1)                 41        
=================================================================
Total params: 1,162,881
Trainable params: 1,162,881
Non-trainable params: 0
_________________________________________________________________

Fitting final model with batch normalization.

WARNING:tensorflow:sample_weight modes were coerced from
  ...
    to  
  ['...']
WARNING:tensorflow:sample_weight modes were coerced from
…
259/259 [==============================] - 39s 150ms/step - loss: 0.1713 - tp: 2838.0000 - fp: 65.0000 - tn: 1024.0000 - fn: 210.0000 - accuracy: 0.9335 - precision: 0.9776 - recall: 0.9311 - auc: 0.9814 - val_loss: 0.1613 - val_tp: 606.0000 - val_fp: 12.0000 - val_tn: 224.0000 - val_fn: 45.0000 - val_accuracy: 0.9357 - val_precision: 0.9806 - val_recall: 0.9309 - val_auc: 0.9844

Model: "sequential_23"
_________________________________________________________________
Layer (type)                 Output Shape              Param #   
=================================================================
conv2d_195 (Conv2D)          (None, 224, 224, 40)      400       
_________________________________________________________________
batch_normalization_60 (Batc (None, 224, 224, 40)      160       
_________________________________________________________________
conv2d_196 (Conv2D)          (None, 112, 112, 40)      14440     
_________________________________________________________________
conv2d_197 (Conv2D)          (None, 112, 112, 80)      28880     
_________________________________________________________________
batch_normalization_61 (Batc (None, 112, 112, 80)      320       
_________________________________________________________________
conv2d_198 (Conv2D)          (None, 56, 56, 80)        57680     
_________________________________________________________________
conv2d_199 (Conv2D)          (None, 56, 56, 120)       86520     
_________________________________________________________________
batch_normalization_62 (Batc (None, 56, 56, 120)       480       
_________________________________________________________________
conv2d_200 (Conv2D)          (None, 28, 28, 120)       129720    
_________________________________________________________________
conv2d_201 (Conv2D)          (None, 28, 28, 160)       172960    
_________________________________________________________________
batch_normalization_63 (Batc (None, 28, 28, 160)       640       
_________________________________________________________________
conv2d_202 (Conv2D)          (None, 14, 14, 160)       230560    
_________________________________________________________________
conv2d_203 (Conv2D)          (None, 14, 14, 200)       288200    
_________________________________________________________________
batch_normalization_64 (Batc (None, 14, 14, 200)       800       
_________________________________________________________________
conv2d_204 (Conv2D)          (None, 7, 7, 200)         360200    
_________________________________________________________________
conv2d_205 (Conv2D)          (None, 7, 7, 240)         432240    
_________________________________________________________________
batch_normalization_65 (Batc (None, 7, 7, 240)         960       
_________________________________________________________________
conv2d_206 (Conv2D)          (None, 4, 4, 240)         518640    
_________________________________________________________________
flatten_23 (Flatten)         (None, 3840)              0         
_________________________________________________________________
dense_46 (Dense)             (None, 40)                153640    
_________________________________________________________________
dense_47 (Dense)             (None, 1)                 41        
=================================================================
Total params: 2,477,481
Trainable params: 2,475,801
Non-trainable params: 1,680
_________________________________________________________________

Fitting final model with batch normalization.

WARNING:tensorflow:sample_weight modes were coerced from
  ...
    to  
  ['...']
WARNING:tensorflow:sample_weight modes were coerced from
…
