
Final model # 1 / 5 is already ready.
Model: "sequential_1"
_________________________________________________________________
Layer (type)                 Output Shape              Param #   
=================================================================
conv2d_3 (Conv2D)            (None, 224, 224, 40)      400       
_________________________________________________________________
max_pooling2d_2 (MaxPooling2 (None, 112, 112, 40)      0         
_________________________________________________________________
conv2d_4 (Conv2D)            (None, 112, 112, 80)      28880     
_________________________________________________________________
max_pooling2d_3 (MaxPooling2 (None, 56, 56, 80)        0         
_________________________________________________________________
conv2d_5 (Conv2D)            (None, 56, 56, 120)       86520     
_________________________________________________________________
max_pooling2d_4 (MaxPooling2 (None, 28, 28, 120)       0         
_________________________________________________________________
conv2d_6 (Conv2D)            (None, 28, 28, 160)       172960    
_________________________________________________________________
max_pooling2d_5 (MaxPooling2 (None, 14, 14, 160)       0         
_________________________________________________________________
conv2d_7 (Conv2D)            (None, 14, 14, 200)       288200    
_________________________________________________________________
max_pooling2d_6 (MaxPooling2 (None, 7, 7, 200)         0         
_________________________________________________________________
conv2d_8 (Conv2D)            (None, 7, 7, 240)         432240    
_________________________________________________________________
max_pooling2d_7 (MaxPooling2 (None, 4, 4, 240)         0         
_________________________________________________________________
flatten_1 (Flatten)          (None, 3840)              0         
_________________________________________________________________
dense_2 (Dense)              (None, 40)                153640    
_________________________________________________________________
dense_3 (Dense)              (None, 1)                 41        
=================================================================
Total params: 1,162,881
Trainable params: 1,162,881
Non-trainable params: 0
_________________________________________________________________

Fitting final model # 2 / 5.

WARNING:tensorflow:sample_weight modes were coerced from
  ...
    to  
  ['...']
WARNING:tensorflow:sample_weight modes were coerced from
…
