Model: "sequential_43"
_________________________________________________________________
Layer (type)                 Output Shape              Param #   
=================================================================
conv2d_1961 (Conv2D)         (None, 224, 224, 24)      120       
_________________________________________________________________
max_pooling2d_1954 (MaxPooli (None, 112, 112, 24)      0         
_________________________________________________________________
conv2d_1962 (Conv2D)         (None, 112, 112, 24)      2328      
_________________________________________________________________
max_pooling2d_1955 (MaxPooli (None, 56, 56, 24)        0         
_________________________________________________________________
conv2d_1963 (Conv2D)         (None, 56, 56, 48)        4656      
_________________________________________________________________
max_pooling2d_1956 (MaxPooli (None, 28, 28, 48)        0         
_________________________________________________________________
conv2d_1964 (Conv2D)         (None, 28, 28, 72)        13896     
_________________________________________________________________
max_pooling2d_1957 (MaxPooli (None, 14, 14, 72)        0         
_________________________________________________________________
conv2d_1965 (Conv2D)         (None, 14, 14, 96)        27744     
_________________________________________________________________
max_pooling2d_1958 (MaxPooli (None, 7, 7, 96)          0         
_________________________________________________________________
conv2d_1966 (Conv2D)         (None, 7, 7, 120)         46200     
_________________________________________________________________
max_pooling2d_1959 (MaxPooli (None, 4, 4, 120)         0         
_________________________________________________________________
flatten_33 (Flatten)         (None, 1920)              0         
_________________________________________________________________
dense_66 (Dense)             (None, 32)                61472     
_________________________________________________________________
dense_67 (Dense)             (None, 1)                 33        
=================================================================
Total params: 156,449
Trainable params: 156,449
Non-trainable params: 0
_________________________________________________________________

Fitting with 2 kernel size.

WARNING:tensorflow:sample_weight modes were coerced from
  ...
    to  
  ['...']
WARNING:tensorflow:sample_weight modes were coerced from
  ...
…
259/259 [==============================] - 37s 143ms/step - loss: 0.2683 - tp: 2655.0000 - fp: 98.0000 - tn: 1015.0000 - fn: 369.0000 - accuracy: 0.8871 - precision: 0.9644 - recall: 0.8780 - auc: 0.9555 - val_loss: 0.2571 - val_tp: 611.0000 - val_fp: 21.0000 - val_tn: 203.0000 - val_fn: 52.0000 - val_accuracy: 0.9177 - val_precision: 0.9668 - val_recall: 0.9216 - val_auc: 0.9593
INFO:tensorflow:Assets written to: models\kernel_2\assets
Model: "sequential_44"
_________________________________________________________________
Layer (type)                 Output Shape              Param #   
=================================================================
conv2d_1967 (Conv2D)         (None, 224, 224, 24)      240       
_________________________________________________________________
max_pooling2d_1960 (MaxPooli (None, 112, 112, 24)      0         
_________________________________________________________________
conv2d_1968 (Conv2D)         (None, 112, 112, 24)      5208      
_________________________________________________________________
max_pooling2d_1961 (MaxPooli (None, 56, 56, 24)        0         
_________________________________________________________________
conv2d_1969 (Conv2D)         (None, 56, 56, 48)        10416     
_________________________________________________________________
max_pooling2d_1962 (MaxPooli (None, 28, 28, 48)        0         
_________________________________________________________________
conv2d_1970 (Conv2D)         (None, 28, 28, 72)        31176     
_________________________________________________________________
max_pooling2d_1963 (MaxPooli (None, 14, 14, 72)        0         
_________________________________________________________________
conv2d_1971 (Conv2D)         (None, 14, 14, 96)        62304     
_________________________________________________________________
max_pooling2d_1964 (MaxPooli (None, 7, 7, 96)          0         
_________________________________________________________________
conv2d_1972 (Conv2D)         (None, 7, 7, 120)         103800    
_________________________________________________________________
max_pooling2d_1965 (MaxPooli (None, 4, 4, 120)         0         
_________________________________________________________________
flatten_34 (Flatten)         (None, 1920)              0         
_________________________________________________________________
dense_68 (Dense)             (None, 32)                61472     
_________________________________________________________________
dense_69 (Dense)             (None, 1)                 33        
=================================================================
Total params: 274,649
Trainable params: 274,649
Non-trainable params: 0
_________________________________________________________________

Fitting with 3 kernel size.

WARNING:tensorflow:sample_weight modes were coerced from
  ...
    to  
  ['...']
WARNING:tensorflow:sample_weight modes were coerced from
  ...
…
259/259 [==============================] - 37s 143ms/step - loss: 0.2451 - tp: 2705.0000 - fp: 96.0000 - tn: 1017.0000 - fn: 319.0000 - accuracy: 0.8997 - precision: 0.9657 - recall: 0.8945 - auc: 0.9630 - val_loss: 0.2673 - val_tp: 623.0000 - val_fp: 37.0000 - val_tn: 187.0000 - val_fn: 40.0000 - val_accuracy: 0.9132 - val_precision: 0.9439 - val_recall: 0.9397 - val_auc: 0.9600
INFO:tensorflow:Assets written to: models\kernel_3\assets
Model: "sequential_45"
_________________________________________________________________
Layer (type)                 Output Shape              Param #   
=================================================================
conv2d_1973 (Conv2D)         (None, 224, 224, 24)      408       
_________________________________________________________________
max_pooling2d_1966 (MaxPooli (None, 112, 112, 24)      0         
_________________________________________________________________
conv2d_1974 (Conv2D)         (None, 112, 112, 24)      9240      
_________________________________________________________________
max_pooling2d_1967 (MaxPooli (None, 56, 56, 24)        0         
_________________________________________________________________
conv2d_1975 (Conv2D)         (None, 56, 56, 48)        18480     
_________________________________________________________________
max_pooling2d_1968 (MaxPooli (None, 28, 28, 48)        0         
_________________________________________________________________
conv2d_1976 (Conv2D)         (None, 28, 28, 72)        55368     
_________________________________________________________________
max_pooling2d_1969 (MaxPooli (None, 14, 14, 72)        0         
_________________________________________________________________
conv2d_1977 (Conv2D)         (None, 14, 14, 96)        110688    
_________________________________________________________________
max_pooling2d_1970 (MaxPooli (None, 7, 7, 96)          0         
_________________________________________________________________
conv2d_1978 (Conv2D)         (None, 7, 7, 120)         184440    
_________________________________________________________________
max_pooling2d_1971 (MaxPooli (None, 4, 4, 120)         0         
_________________________________________________________________
flatten_35 (Flatten)         (None, 1920)              0         
_________________________________________________________________
dense_70 (Dense)             (None, 32)                61472     
_________________________________________________________________
dense_71 (Dense)             (None, 1)                 33        
=================================================================
Total params: 440,129
Trainable params: 440,129
Non-trainable params: 0
_________________________________________________________________

Fitting with 4 kernel size.

WARNING:tensorflow:sample_weight modes were coerced from
  ...
    to  
  ['...']
WARNING:tensorflow:sample_weight modes were coerced from
  ...
…
259/259 [==============================] - 37s 143ms/step - loss: 0.3098 - tp: 2558.0000 - fp: 93.0000 - tn: 1020.0000 - fn: 466.0000 - accuracy: 0.8649 - precision: 0.9649 - recall: 0.8459 - auc: 0.9391 - val_loss: 0.3238 - val_tp: 591.0000 - val_fp: 37.0000 - val_tn: 187.0000 - val_fn: 72.0000 - val_accuracy: 0.8771 - val_precision: 0.9411 - val_recall: 0.8914 - val_auc: 0.9385
INFO:tensorflow:Assets written to: models\kernel_4\assets
Model: "sequential_46"
_________________________________________________________________
Layer (type)                 Output Shape              Param #   
=================================================================
conv2d_1979 (Conv2D)         (None, 224, 224, 24)      624       
_________________________________________________________________
max_pooling2d_1972 (MaxPooli (None, 112, 112, 24)      0         
_________________________________________________________________
conv2d_1980 (Conv2D)         (None, 112, 112, 24)      14424     
_________________________________________________________________
max_pooling2d_1973 (MaxPooli (None, 56, 56, 24)        0         
_________________________________________________________________
conv2d_1981 (Conv2D)         (None, 56, 56, 48)        28848     
_________________________________________________________________
max_pooling2d_1974 (MaxPooli (None, 28, 28, 48)        0         
_________________________________________________________________
conv2d_1982 (Conv2D)         (None, 28, 28, 72)        86472     
_________________________________________________________________
max_pooling2d_1975 (MaxPooli (None, 14, 14, 72)        0         
_________________________________________________________________
conv2d_1983 (Conv2D)         (None, 14, 14, 96)        172896    
_________________________________________________________________
max_pooling2d_1976 (MaxPooli (None, 7, 7, 96)          0         
_________________________________________________________________
conv2d_1984 (Conv2D)         (None, 7, 7, 120)         288120    
_________________________________________________________________
max_pooling2d_1977 (MaxPooli (None, 4, 4, 120)         0         
_________________________________________________________________
flatten_36 (Flatten)         (None, 1920)              0         
_________________________________________________________________
dense_72 (Dense)             (None, 32)                61472     
_________________________________________________________________
dense_73 (Dense)             (None, 1)                 33        
=================================================================
Total params: 652,889
Trainable params: 652,889
Non-trainable params: 0
_________________________________________________________________


Fitting with 5 kernel size.

WARNING:tensorflow:sample_weight modes were coerced from
  ...
    to  
  ['...']
WARNING:tensorflow:sample_weight modes were coerced from
  ...
…
259/259 [==============================] - 37s 143ms/step - loss: 0.6951 - tp: 0.0000e+00 - fp: 0.0000e+00 - tn: 1113.0000 - fn: 3024.0000 - accuracy: 0.2690 - precision: 0.0000e+00 - recall: 0.0000e+00 - auc: 0.5000 - val_loss: 0.6843 - val_tp: 0.0000e+00 - val_fp: 0.0000e+00 - val_tn: 224.0000 - val_fn: 663.0000 - val_accuracy: 0.2525 - val_precision: 0.0000e+00 - val_recall: 0.0000e+00 - val_auc: 0.5000
INFO:tensorflow:Assets written to: models\kernel_5\assets
Model: "sequential_47"
_________________________________________________________________
Layer (type)                 Output Shape              Param #   
=================================================================
conv2d_1985 (Conv2D)         (None, 224, 224, 24)      888       
_________________________________________________________________
max_pooling2d_1978 (MaxPooli (None, 112, 112, 24)      0         
_________________________________________________________________
conv2d_1986 (Conv2D)         (None, 112, 112, 24)      20760     
_________________________________________________________________
max_pooling2d_1979 (MaxPooli (None, 56, 56, 24)        0         
_________________________________________________________________
conv2d_1987 (Conv2D)         (None, 56, 56, 48)        41520     
_________________________________________________________________
max_pooling2d_1980 (MaxPooli (None, 28, 28, 48)        0         
_________________________________________________________________
conv2d_1988 (Conv2D)         (None, 28, 28, 72)        124488    
_________________________________________________________________
max_pooling2d_1981 (MaxPooli (None, 14, 14, 72)        0         
_________________________________________________________________
conv2d_1989 (Conv2D)         (None, 14, 14, 96)        248928    
_________________________________________________________________
max_pooling2d_1982 (MaxPooli (None, 7, 7, 96)          0         
_________________________________________________________________
conv2d_1990 (Conv2D)         (None, 7, 7, 120)         414840    
_________________________________________________________________
max_pooling2d_1983 (MaxPooli (None, 4, 4, 120)         0         
_________________________________________________________________
flatten_37 (Flatten)         (None, 1920)              0         
_________________________________________________________________
dense_74 (Dense)             (None, 32)                61472     
_________________________________________________________________
dense_75 (Dense)             (None, 1)                 33        
=================================================================
Total params: 912,929
Trainable params: 912,929
Non-trainable params: 0
_________________________________________________________________

Fitting with 6 kernel size.

WARNING:tensorflow:sample_weight modes were coerced from
  ...
    to  
  ['...']
WARNING:tensorflow:sample_weight modes were coerced from
  ...
…
259/259 [==============================] - 37s 143ms/step - loss: 0.6951 - tp: 0.0000e+00 - fp: 0.0000e+00 - tn: 1113.0000 - fn: 3024.0000 - accuracy: 0.2690 - precision: 0.0000e+00 - recall: 0.0000e+00 - auc: 0.4950 - val_loss: 0.6842 - val_tp: 0.0000e+00 - val_fp: 0.0000e+00 - val_tn: 224.0000 - val_fn: 663.0000 - val_accuracy: 0.2525 - val_precision: 0.0000e+00 - val_recall: 0.0000e+00 - val_auc: 0.5000
INFO:tensorflow:Assets written to: models\kernel_6\assets
Model: "sequential_48"
_________________________________________________________________
Layer (type)                 Output Shape              Param #   
=================================================================
conv2d_1991 (Conv2D)         (None, 224, 224, 24)      1200      
_________________________________________________________________
max_pooling2d_1984 (MaxPooli (None, 112, 112, 24)      0         
_________________________________________________________________
conv2d_1992 (Conv2D)         (None, 112, 112, 24)      28248     
_________________________________________________________________
max_pooling2d_1985 (MaxPooli (None, 56, 56, 24)        0         
_________________________________________________________________
conv2d_1993 (Conv2D)         (None, 56, 56, 48)        56496     
_________________________________________________________________
max_pooling2d_1986 (MaxPooli (None, 28, 28, 48)        0         
_________________________________________________________________
conv2d_1994 (Conv2D)         (None, 28, 28, 72)        169416    
_________________________________________________________________
max_pooling2d_1987 (MaxPooli (None, 14, 14, 72)        0         
_________________________________________________________________
conv2d_1995 (Conv2D)         (None, 14, 14, 96)        338784    
_________________________________________________________________
max_pooling2d_1988 (MaxPooli (None, 7, 7, 96)          0         
_________________________________________________________________
conv2d_1996 (Conv2D)         (None, 7, 7, 120)         564600    
_________________________________________________________________
max_pooling2d_1989 (MaxPooli (None, 4, 4, 120)         0         
_________________________________________________________________
flatten_38 (Flatten)         (None, 1920)              0         
_________________________________________________________________
dense_76 (Dense)             (None, 32)                61472     
_________________________________________________________________
dense_77 (Dense)             (None, 1)                 33        
=================================================================
Total params: 1,220,249
Trainable params: 1,220,249
Non-trainable params: 0
_________________________________________________________________

Fitting with 7 kernel size.

WARNING:tensorflow:sample_weight modes were coerced from
  ...
    to  
  ['...']
WARNING:tensorflow:sample_weight modes were coerced from
  ...
…
259/259 [==============================] - 37s 143ms/step - loss: 0.6951 - tp: 0.0000e+00 - fp: 0.0000e+00 - tn: 1113.0000 - fn: 3024.0000 - accuracy: 0.2690 - precision: 0.0000e+00 - recall: 0.0000e+00 - auc: 0.4829 - val_loss: 0.6843 - val_tp: 0.0000e+00 - val_fp: 0.0000e+00 - val_tn: 224.0000 - val_fn: 663.0000 - val_accuracy: 0.2525 - val_precision: 0.0000e+00 - val_recall: 0.0000e+00 - val_auc: 0.5000
INFO:tensorflow:Assets written to: models\kernel_7\assets
Model: "sequential_49"
_________________________________________________________________
Layer (type)                 Output Shape              Param #   
=================================================================
conv2d_1997 (Conv2D)         (None, 224, 224, 24)      1560      
_________________________________________________________________
max_pooling2d_1990 (MaxPooli (None, 112, 112, 24)      0         
_________________________________________________________________
conv2d_1998 (Conv2D)         (None, 112, 112, 24)      36888     
_________________________________________________________________
max_pooling2d_1991 (MaxPooli (None, 56, 56, 24)        0         
_________________________________________________________________
conv2d_1999 (Conv2D)         (None, 56, 56, 48)        73776     
_________________________________________________________________
max_pooling2d_1992 (MaxPooli (None, 28, 28, 48)        0         
_________________________________________________________________
conv2d_2000 (Conv2D)         (None, 28, 28, 72)        221256    
_________________________________________________________________
max_pooling2d_1993 (MaxPooli (None, 14, 14, 72)        0         
_________________________________________________________________
conv2d_2001 (Conv2D)         (None, 14, 14, 96)        442464    
_________________________________________________________________
max_pooling2d_1994 (MaxPooli (None, 7, 7, 96)          0         
_________________________________________________________________
conv2d_2002 (Conv2D)         (None, 7, 7, 120)         737400    
_________________________________________________________________
max_pooling2d_1995 (MaxPooli (None, 4, 4, 120)         0         
_________________________________________________________________
flatten_39 (Flatten)         (None, 1920)              0         
_________________________________________________________________
dense_78 (Dense)             (None, 32)                61472     
_________________________________________________________________
dense_79 (Dense)             (None, 1)                 33        
=================================================================
Total params: 1,574,849
Trainable params: 1,574,849
Non-trainable params: 0
_________________________________________________________________


Fitting with 8 kernel size.

WARNING:tensorflow:sample_weight modes were coerced from
  ...
    to  
  ['...']
WARNING:tensorflow:sample_weight modes were coerced from
…
