Model: "sequential_32"
_________________________________________________________________
Layer (type)                 Output Shape              Param #   
=================================================================
conv2d_1917 (Conv2D)         (None, 224, 224, 24)      240       
_________________________________________________________________
max_pooling2d_1910 (MaxPooli (None, 112, 112, 24)      0         
_________________________________________________________________
flatten_24 (Flatten)         (None, 301056)            0         
_________________________________________________________________
dense_48 (Dense)             (None, 32)                9633824   
_________________________________________________________________
dense_49 (Dense)             (None, 1)                 33        
=================================================================
Total params: 9,634,097
Trainable params: 9,634,097
Non-trainable params: 0
_________________________________________________________________

Fitting with 1 subsampling block.

WARNING:tensorflow:sample_weight modes were coerced from
  ...
    to  
  ['...']
WARNING:tensorflow:sample_weight modes were coerced from
…
WARNING:tensorflow:From C:\Users\gwael\.conda\envs\Env_gpu\lib\site-packages\tensorflow_core\python\ops\resource_variable_ops.py:1786: calling BaseResourceVariable.__init__ (from tensorflow.python.ops.resource_variable_ops) with constraint is deprecated and will be removed in a future version.
Instructions for updating:
If using Keras pass *_constraint arguments to layers.
INFO:tensorflow:Assets written to: models\subsampling_1\assets
Model: "sequential_33"
_________________________________________________________________
Layer (type)                 Output Shape              Param #   
=================================================================
conv2d_1918 (Conv2D)         (None, 224, 224, 24)      240       
_________________________________________________________________
max_pooling2d_1911 (MaxPooli (None, 112, 112, 24)      0         
_________________________________________________________________
conv2d_1919 (Conv2D)         (None, 112, 112, 24)      5208      
_________________________________________________________________
max_pooling2d_1912 (MaxPooli (None, 56, 56, 24)        0         
_________________________________________________________________
flatten_25 (Flatten)         (None, 75264)             0         
_________________________________________________________________
dense_50 (Dense)             (None, 32)                2408480   
_________________________________________________________________
dense_51 (Dense)             (None, 1)                 33        
=================================================================
Total params: 2,413,961
Trainable params: 2,413,961
Non-trainable params: 0
_________________________________________________________________

Fitting with 2 subsampling blocks.

WARNING:tensorflow:sample_weight modes were coerced from
  ...
    to  
  ['...']
WARNING:tensorflow:sample_weight modes were coerced from
…
259/259 [==============================] - 38s 146ms/step - loss: 0.3320 - tp: 2531.0000 - fp: 119.0000 - tn: 994.0000 - fn: 493.0000 - accuracy: 0.8521 - precision: 0.9551 - recall: 0.8370 - auc: 0.9313 - val_loss: 0.3229 - val_tp: 540.0000 - val_fp: 19.0000 - val_tn: 205.0000 - val_fn: 123.0000 - val_accuracy: 0.8399 - val_precision: 0.9660 - val_recall: 0.8145 - val_auc: 0.9337
INFO:tensorflow:Assets written to: models\subsampling_2\assets
Model: "sequential_34"
_________________________________________________________________
Layer (type)                 Output Shape              Param #   
=================================================================
conv2d_1920 (Conv2D)         (None, 224, 224, 24)      240       
_________________________________________________________________
max_pooling2d_1913 (MaxPooli (None, 112, 112, 24)      0         
_________________________________________________________________
conv2d_1921 (Conv2D)         (None, 112, 112, 24)      5208      
_________________________________________________________________
max_pooling2d_1914 (MaxPooli (None, 56, 56, 24)        0         
_________________________________________________________________
conv2d_1922 (Conv2D)         (None, 56, 56, 48)        10416     
_________________________________________________________________
max_pooling2d_1915 (MaxPooli (None, 28, 28, 48)        0         
_________________________________________________________________
flatten_26 (Flatten)         (None, 37632)             0         
_________________________________________________________________
dense_52 (Dense)             (None, 32)                1204256   
_________________________________________________________________
dense_53 (Dense)             (None, 1)                 33        
=================================================================
Total params: 1,220,153
Trainable params: 1,220,153
Non-trainable params: 0
_________________________________________________________________

Fitting with 3 subsampling blocks.

WARNING:tensorflow:sample_weight modes were coerced from
  ...
    to  
  ['...']
WARNING:tensorflow:sample_weight modes were coerced from
…
259/259 [==============================] - 38s 146ms/step - loss: 0.2956 - tp: 2584.0000 - fp: 109.0000 - tn: 1004.0000 - fn: 440.0000 - accuracy: 0.8673 - precision: 0.9595 - recall: 0.8545 - auc: 0.9454 - val_loss: 0.3065 - val_tp: 544.0000 - val_fp: 14.0000 - val_tn: 210.0000 - val_fn: 119.0000 - val_accuracy: 0.8501 - val_precision: 0.9749 - val_recall: 0.8205 - val_auc: 0.9429
INFO:tensorflow:Assets written to: models\subsampling_3\assets
Model: "sequential_35"
_________________________________________________________________
Layer (type)                 Output Shape              Param #   
=================================================================
conv2d_1923 (Conv2D)         (None, 224, 224, 24)      240       
_________________________________________________________________
max_pooling2d_1916 (MaxPooli (None, 112, 112, 24)      0         
_________________________________________________________________
conv2d_1924 (Conv2D)         (None, 112, 112, 24)      5208      
_________________________________________________________________
max_pooling2d_1917 (MaxPooli (None, 56, 56, 24)        0         
_________________________________________________________________
conv2d_1925 (Conv2D)         (None, 56, 56, 48)        10416     
_________________________________________________________________
max_pooling2d_1918 (MaxPooli (None, 28, 28, 48)        0         
_________________________________________________________________
conv2d_1926 (Conv2D)         (None, 28, 28, 72)        31176     
_________________________________________________________________
max_pooling2d_1919 (MaxPooli (None, 14, 14, 72)        0         
_________________________________________________________________
flatten_27 (Flatten)         (None, 14112)             0         
_________________________________________________________________
dense_54 (Dense)             (None, 32)                451616    
_________________________________________________________________
dense_55 (Dense)             (None, 1)                 33        
=================================================================
Total params: 498,689
Trainable params: 498,689
Non-trainable params: 0
_________________________________________________________________

Fitting with 4 subsampling blocks.

WARNING:tensorflow:sample_weight modes were coerced from
  ...
    to  
  ['...']
WARNING:tensorflow:sample_weight modes were coerced from
…
259/259 [==============================] - 41s 156ms/step - loss: 0.2897 - tp: 2626.0000 - fp: 108.0000 - tn: 1005.0000 - fn: 398.0000 - accuracy: 0.8777 - precision: 0.9605 - recall: 0.8684 - auc: 0.9478 - val_loss: 0.2890 - val_tp: 601.0000 - val_fp: 34.0000 - val_tn: 190.0000 - val_fn: 62.0000 - val_accuracy: 0.8918 - val_precision: 0.9465 - val_recall: 0.9065 - val_auc: 0.9492
INFO:tensorflow:Assets written to: models\subsampling_4\assets
Model: "sequential_36"
_________________________________________________________________
Layer (type)                 Output Shape              Param #   
=================================================================
conv2d_1927 (Conv2D)         (None, 224, 224, 24)      240       
_________________________________________________________________
max_pooling2d_1920 (MaxPooli (None, 112, 112, 24)      0         
_________________________________________________________________
conv2d_1928 (Conv2D)         (None, 112, 112, 24)      5208      
_________________________________________________________________
max_pooling2d_1921 (MaxPooli (None, 56, 56, 24)        0         
_________________________________________________________________
conv2d_1929 (Conv2D)         (None, 56, 56, 48)        10416     
_________________________________________________________________
max_pooling2d_1922 (MaxPooli (None, 28, 28, 48)        0         
_________________________________________________________________
conv2d_1930 (Conv2D)         (None, 28, 28, 72)        31176     
_________________________________________________________________
max_pooling2d_1923 (MaxPooli (None, 14, 14, 72)        0         
_________________________________________________________________
conv2d_1931 (Conv2D)         (None, 14, 14, 96)        62304     
_________________________________________________________________
max_pooling2d_1924 (MaxPooli (None, 7, 7, 96)          0         
_________________________________________________________________
flatten_28 (Flatten)         (None, 4704)              0         
_________________________________________________________________
dense_56 (Dense)             (None, 32)                150560    
_________________________________________________________________
dense_57 (Dense)             (None, 1)                 33        
=================================================================
Total params: 259,937
Trainable params: 259,937
Non-trainable params: 0
_________________________________________________________________


Fitting with 5 subsampling blocks.

WARNING:tensorflow:sample_weight modes were coerced from
  ...
    to  
  ['...']
WARNING:tensorflow:sample_weight modes were coerced from
…
259/259 [==============================] - 37s 144ms/step - loss: 0.2897 - tp: 2630.0000 - fp: 106.0000 - tn: 1007.0000 - fn: 394.0000 - accuracy: 0.8791 - precision: 0.9613 - recall: 0.8697 - auc: 0.9482 - val_loss: 0.2685 - val_tp: 581.0000 - val_fp: 22.0000 - val_tn: 202.0000 - val_fn: 82.0000 - val_accuracy: 0.8828 - val_precision: 0.9635 - val_recall: 0.8763 - val_auc: 0.9542
INFO:tensorflow:Assets written to: models\subsampling_5\assets

Model: "sequential_37"
_________________________________________________________________
Layer (type)                 Output Shape              Param #   
=================================================================
conv2d_1932 (Conv2D)         (None, 224, 224, 24)      240       
_________________________________________________________________
max_pooling2d_1925 (MaxPooli (None, 112, 112, 24)      0         
_________________________________________________________________
conv2d_1933 (Conv2D)         (None, 112, 112, 24)      5208      
_________________________________________________________________
max_pooling2d_1926 (MaxPooli (None, 56, 56, 24)        0         
_________________________________________________________________
conv2d_1934 (Conv2D)         (None, 56, 56, 48)        10416     
_________________________________________________________________
max_pooling2d_1927 (MaxPooli (None, 28, 28, 48)        0         
_________________________________________________________________
conv2d_1935 (Conv2D)         (None, 28, 28, 72)        31176     
_________________________________________________________________
max_pooling2d_1928 (MaxPooli (None, 14, 14, 72)        0         
_________________________________________________________________
conv2d_1936 (Conv2D)         (None, 14, 14, 96)        62304     
_________________________________________________________________
max_pooling2d_1929 (MaxPooli (None, 7, 7, 96)          0         
_________________________________________________________________
conv2d_1937 (Conv2D)         (None, 7, 7, 120)         103800    
_________________________________________________________________
max_pooling2d_1930 (MaxPooli (None, 4, 4, 120)         0         
_________________________________________________________________
flatten_29 (Flatten)         (None, 1920)              0         
_________________________________________________________________
dense_58 (Dense)             (None, 32)                61472     
_________________________________________________________________
dense_59 (Dense)             (None, 1)                 33        
=================================================================
Total params: 274,649
Trainable params: 274,649
Non-trainable params: 0
_________________________________________________________________

Fitting with 6 subsampling blocks.

WARNING:tensorflow:sample_weight modes were coerced from
  ...
    to  
  ['...']
WARNING:tensorflow:sample_weight modes were coerced from
…
259/259 [==============================] - 37s 145ms/step - loss: 0.2697 - tp: 2685.0000 - fp: 111.0000 - tn: 1002.0000 - fn: 339.0000 - accuracy: 0.8912 - precision: 0.9603 - recall: 0.8879 - auc: 0.9547 - val_loss: 0.2210 - val_tp: 598.0000 - val_fp: 20.0000 - val_tn: 204.0000 - val_fn: 65.0000 - val_accuracy: 0.9042 - val_precision: 0.9676 - val_recall: 0.9020 - val_auc: 0.9664
INFO:tensorflow:Assets written to: models\subsampling_6\assets
Model: "sequential_38"
_________________________________________________________________
Layer (type)                 Output Shape              Param #   
=================================================================
conv2d_1938 (Conv2D)         (None, 224, 224, 24)      240       
_________________________________________________________________
max_pooling2d_1931 (MaxPooli (None, 112, 112, 24)      0         
_________________________________________________________________
conv2d_1939 (Conv2D)         (None, 112, 112, 24)      5208      
_________________________________________________________________
max_pooling2d_1932 (MaxPooli (None, 56, 56, 24)        0         
_________________________________________________________________
conv2d_1940 (Conv2D)         (None, 56, 56, 48)        10416     
_________________________________________________________________
max_pooling2d_1933 (MaxPooli (None, 28, 28, 48)        0         
_________________________________________________________________
conv2d_1941 (Conv2D)         (None, 28, 28, 72)        31176     
_________________________________________________________________
max_pooling2d_1934 (MaxPooli (None, 14, 14, 72)        0         
_________________________________________________________________
conv2d_1942 (Conv2D)         (None, 14, 14, 96)        62304     
_________________________________________________________________
max_pooling2d_1935 (MaxPooli (None, 7, 7, 96)          0         
_________________________________________________________________
conv2d_1943 (Conv2D)         (None, 7, 7, 120)         103800    
_________________________________________________________________
max_pooling2d_1936 (MaxPooli (None, 4, 4, 120)         0         
_________________________________________________________________
conv2d_1944 (Conv2D)         (None, 4, 4, 144)         155664    
_________________________________________________________________
max_pooling2d_1937 (MaxPooli (None, 2, 2, 144)         0         
_________________________________________________________________
flatten_30 (Flatten)         (None, 576)               0         
_________________________________________________________________
dense_60 (Dense)             (None, 32)                18464     
_________________________________________________________________
dense_61 (Dense)             (None, 1)                 33        
=================================================================
Total params: 387,305
Trainable params: 387,305
Non-trainable params: 0
_________________________________________________________________

Fitting with 7 subsampling blocks.

WARNING:tensorflow:sample_weight modes were coerced from
  ...
    to  
  ['...']
WARNING:tensorflow:sample_weight modes were coerced from
…
259/259 [==============================] - 37s 144ms/step - loss: 0.2867 - tp: 2648.0000 - fp: 114.0000 - tn: 999.0000 - fn: 376.0000 - accuracy: 0.8816 - precision: 0.9587 - recall: 0.8757 - auc: 0.9492 - val_loss: 0.3001 - val_tp: 573.0000 - val_fp: 19.0000 - val_tn: 205.0000 - val_fn: 90.0000 - val_accuracy: 0.8771 - val_precision: 0.9679 - val_recall: 0.8643 - val_auc: 0.9418
INFO:tensorflow:Assets written to: models\subsampling_7\assets
Model: "sequential_39"
_________________________________________________________________
Layer (type)                 Output Shape              Param #   
=================================================================
conv2d_1945 (Conv2D)         (None, 224, 224, 24)      240       
_________________________________________________________________
max_pooling2d_1938 (MaxPooli (None, 112, 112, 24)      0         
_________________________________________________________________
conv2d_1946 (Conv2D)         (None, 112, 112, 24)      5208      
_________________________________________________________________
max_pooling2d_1939 (MaxPooli (None, 56, 56, 24)        0         
_________________________________________________________________
conv2d_1947 (Conv2D)         (None, 56, 56, 48)        10416     
_________________________________________________________________
max_pooling2d_1940 (MaxPooli (None, 28, 28, 48)        0         
_________________________________________________________________
conv2d_1948 (Conv2D)         (None, 28, 28, 72)        31176     
_________________________________________________________________
max_pooling2d_1941 (MaxPooli (None, 14, 14, 72)        0         
_________________________________________________________________
conv2d_1949 (Conv2D)         (None, 14, 14, 96)        62304     
_________________________________________________________________
max_pooling2d_1942 (MaxPooli (None, 7, 7, 96)          0         
_________________________________________________________________
conv2d_1950 (Conv2D)         (None, 7, 7, 120)         103800    
_________________________________________________________________
max_pooling2d_1943 (MaxPooli (None, 4, 4, 120)         0         
_________________________________________________________________
conv2d_1951 (Conv2D)         (None, 4, 4, 144)         155664    
_________________________________________________________________
max_pooling2d_1944 (MaxPooli (None, 2, 2, 144)         0         
_________________________________________________________________
conv2d_1952 (Conv2D)         (None, 2, 2, 168)         217896    
_________________________________________________________________
max_pooling2d_1945 (MaxPooli (None, 1, 1, 168)         0         
_________________________________________________________________
flatten_31 (Flatten)         (None, 168)               0         
_________________________________________________________________
dense_62 (Dense)             (None, 32)                5408      
_________________________________________________________________
dense_63 (Dense)             (None, 1)                 33        
=================================================================
Total params: 592,145
Trainable params: 592,145
Non-trainable params: 0
_________________________________________________________________

Fitting with 8 subsampling blocks.

WARNING:tensorflow:sample_weight modes were coerced from
  ...
    to  
  ['...']
WARNING:tensorflow:sample_weight modes were coerced from
…
